2.5.1 - Project - Live CNN Inference/OpenMV/trained.tflite (tflite, 291712 bytes, 54 tensors)

sequential/dense/Tensordot/MatMul;StatefulPartitionedCall/sequential/dense/Tensordot/MatMul i1 [8, 1280] scale=0.0008828952 zero_point=0
000000 0f dc fd fd 28 dc 11 3a 15 b9 c1 4a cd fc 4d 43
       0.0132434275 -0.03178423 -0.0026486856 -0.0026486856 0.035315808 -0.03178423 0.015009219 0.051207922 0.0185408 -0.06268556 -0.0556224 0.065334246 -0.045027655 -0.0035315808 0.06798293 0.059153978
000010 d0 25 3a 2a 09 fe d7 f2 ff f1 42 bb 2f c0 46 46
       -0.04237897 0.032667123 0.051207922 0.0370816 0.007946057 -0.0017657904 -0.0361987 -0.012360533 -0.0008828952 -0.0132434275 0.058271084 -0.06091977 0.041496076 -0.056505293 0.061802663 0.061802663
000020 f6 39 e8 fe ea b6 1d c1 b5 4d 38 cb c7 bf d5 3b
       -0.008828952 0.050325025 -0.021189485 -0.0017657904 -0.019423693 -0.065334246 0.025603961 -0.0556224 -0.06621714 0.06798293 0.04944213 -0.046793446 -0.050325025 -0.057388186 -0.037964493 0.052090816
000030 bd ee e0 0f 4b c0 39 01 dd b4 b5 fb 2a fc ee d8
       -0.059153978 -0.015892114 -0.028252646 0.0132434275 0.06621714 -0.056505293 0.050325025 0.0008828952 -0.030901331 -0.06710003 -0.06621714 -0.004414476 0.0370816 -0.0035315808 -0.015892114 -0.035315808
000040 1a 0e 17 f1 3c 33 36 1b 0f 35 dd d9 03 d3 f0 38
       0.022955276 0.012360533 0.02030659 -0.0132434275 0.05297371 0.045027655 0.04767634 0.02383817 0.0132434275 0.046793446 -0.030901331 -0.034432914 0.0026486856 -0.039730284 -0.014126323 0.04944213
000050 e8 3f b7 4d bf 27 f3 f1 e8 3e bf f1 11 db 0b 16
       -0.021189485 0.0556224 -0.06445135 0.06798293 -0.057388186 0.034432914 -0.011477638 -0.0132434275 -0.021189485 0.0547395 -0.057388186 -0.0132434275 0.015009219 -0.032667123 0.009711847 0.019423693
000060 40 d2 47 ef bd bc d7 2a 01 09 cf d4 47 c0 11 db
       0.056505293 -0.04061318 0.06268556 -0.015009219 -0.059153978 -0.060036875 -0.0361987 0.0370816 0.0008828952 0.007946057 -0.043261863 -0.038847387 0.06268556 -0.056505293 0.015009219 -0.032667123
000070 26 ce e0 3a cb c9 40 4b 2f be 49 41 02 fd 18 ef
       0.033550017 -0.04414476 -0.028252646 0.051207922 -0.046793446 -0.048559237 0.056505293 0.06621714 0.041496076 -0.058271084 0.06445135 0.057388186 0.0017657904 -0.0026486856 0.021189485 -0.015009219
000080 ce e4 cd 4c 3b fd e4 e2 14 c5 0d f9 d8 49 09 f1
       -0.04414476 -0.024721066 -0.045027655 0.06710003 0.052090816 -0.0026486856 -0.024721066 -0.026486855 0.017657904 -0.052090816 0.011477638 -0.0061802664 -0.035315808 0.06445135 0.007946057 -0.0132434275
000090 f0 b6 f9 0b 09 c0 3c e4 c4 e0 b6 c9 f4 d2 2b c7
       -0.014126323 -0.065334246 -0.0061802664 0.009711847 0.007946057 -0.056505293 0.05297371 -0.024721066 -0.05297371 -0.028252646 -0.065334246 -0.048559237 -0.010594742 -0.04061318 0.037964493 -0.050325025
0000a0 bf f3 20 04 e3 0f 16 48 48 1b 34 cc d3 f1 de 1e
       -0.057388186 -0.011477638 0.028252646 0.0035315808 -0.025603961 0.0132434275 0.019423693 0.06356846 0.06356846 0.02383817 0.045910552 -0.045910552 -0.039730284 -0.0132434275 -0.030018438 0.026486855
0000b0 2d fa c4 e2 f6 db f9 31 cb f1 c1 21 45 3c db d6
       0.039730284 -0.005297371 -0.05297371 -0.026486855 -0.008828952 -0.032667123 -0.0061802664 0.043261863 -0.046793446 -0.0132434275 -0.0556224 0.029135542 0.06091977 0.05297371 -0.032667123 -0.0370816
0000c0 bd 2b f2 c4 3f 38 1e de c7 e9 3f 13 10 f0 2e f3
       -0.059153978 0.037964493 -0.012360533 -0.05297371 0.0556224 0.04944213 0.026486855 -0.030018438 -0.050325025 -0.02030659 0.0556224 0.016775008 0.014126323 -0.014126323 0.04061318 -0.011477638
0000d0 f2 49 e8 db 37 0c b5 34 03 f8 26 4b 25 c2 06 e4
       -0.012360533 0.06445135 -0.021189485 -0.032667123 0.048559237 0.010594742 -0.06621714 0.045910552 0.0026486856 -0.0070631616 0.033550017 0.06621714 0.032667123 -0.0547395 0.005297371 -0.024721066
0000e0 d4 fe 1c 2a c8 fe 3e e3 01 f6 e6 f6 17 0c d9 ef
       -0.038847387 -0.0017657904 0.024721066 0.0370816 -0.04944213 -0.0017657904 0.0547395 -0.025603961 0.0008828952 -0.008828952 -0.022955276 -0.008828952 0.02030659 0.010594742 -0.034432914 -0.015009219
0000f0 f7 c1 1b 47 3b f6 f2 1b 18 bc 01 23 b3 3d 2b f4
       -0.007946057 -0.0556224 0.02383817 0.06268556 0.052090816 -0.008828952 -0.012360533 0.02383817 0.021189485 -0.060036875 0.0008828952 0.030901331 -0.06798293 0.053856608 0.037964493 -0.010594742

sequential/dense_1/MatMul;StatefulPartitionedCall/sequential/dense_1/MatMul i1 [2, 32] scale=0.0033701216 zero_point=0
000000 cc f5 c8 c3 70 05 71 02 2d 9e 92 c5 54 d8 7f e8
       -0.17524633 -0.037071336 -0.18872681 -0.20557742 0.37745363 0.016850607 0.38082373 0.006740243 0.15165547 -0.33027193 -0.37071338 -0.19883718 0.2830902 -0.13480486 0.42800543 -0.08088292
000010 98 0c 5c 0e 58 d3 62 c7 d4 59 06 8c a5 a2 1c 13
       -0.35049266 0.04044146 0.31005117 0.047181703 0.2965707 -0.15165547 0.33027193 -0.19209693 -0.14828534 0.29994082 0.02022073 -0.3909341 -0.30668107 -0.31679142 0.09436341 0.06403231
000020 5f 7c a3 b2 0d 64 0d c9 48 99 a8 39 b5 0b 19 57
       0.32016155 0.41789508 -0.3134213 -0.26286948 0.043811582 0.33701217 0.043811582 -0.18535669 0.24264875 -0.34712252 -0.2965707 0.19209693 -0.25275913 0.037071336 0.08425304 0.29320058
000030 a4 61 67 4a b3 02 f0 30 69 f9 ad a4 49 5e 76 87
       -0.31005117 0.3269018 0.34712252 0.249389 -0.25949937 0.006740243 -0.053921945 0.16176584 0.35386276 -0.023590852 -0.2797201 -0.31005117 0.24601887 0.31679142 0.39767435 -0.4077847

sequential/model/Conv1/Conv2D;StatefulPartitionedCall/sequential/model/Conv1/Conv2D i1 [8, 3, 3, 1]
000000 c7 32 09 81 79 00 d6 2e 00 39 7f 23 bc b1 d4 07
       -57 50 9 -127 121 0 -42 46 0 57 127 35 -68 -79 -44 7
000010 d7 06 1f 1c d1 34 45 81 15 20 c6 2a 35 14 35 4a
       -41 6 31 28 -47 52 69 -127 21 32 -58 42 53 20 53 74
000020 1a b0 81 c6 04 cb 2f 10 81 70 05 db 20 02 c8 00
       26 -80 -127 -58 4 -53 47 16 -127 112 5 -37 32 2 -56 0
000030 ff 7f 02 01 b5 00 f1 ad ff e8 81 fa f2 cb 05 2c
       -1 127 2 1 -75 0 -15 -83 -1 -24 -127 -6 -14 -53 5 44
000040 81 1e ed fd f5 e8 4b f4
       -127 30 -19 -3 -11 -24 75 -12

sequential/model/expanded_conv_project/Conv2D;StatefulPartitionedCall/sequential/model/expanded_conv_project/Conv2D i1 [8, 1, 1, 8]
000000 e8 fd d3 de ed 25 81 f8 12 5c ff 7f 09 f9 f6 dc
       -24 -3 -45 -34 -19 37 -127 -8 18 92 -1 127 9 -7 -10 -36
000010 7f fb dd c7 bc 2e 61 cb 0b 81 2a ad 10 aa 1b 3b
       127 -5 -35 -57 -68 46 97 -53 11 -127 42 -83 16 -86 27 59
000020 7f fd c3 f7 1e fc 81 d0 03 df 04 25 03 81 ff 0a
       127 -3 -61 -9 30 -4 -127 -48 3 -33 4 37 3 -127 -1 10
000030 7f e5 72 02 6c e2 fc 08 81 fd a2 fc 9d 08 21 07
       127 -27 114 2 108 -30 -4 8 -127 -3 -94 -4 -99 8 33 7

sequential/model/block_1_expand/Conv2D;StatefulPartitionedCall/sequential/model/block_1_expand/Conv2D i1 [48, 1, 1, 8]
000000 99 98 16 81 c3 fd fc fe 81 f1 62 00 cd 17 03 11
       -103 -104 22 -127 -61 -3 -4 -2 -127 -15 98 0 -51 23 3 17
000010 16 f5 15 7f 19 e6 ef fb 95 ba e6 f2 27 7f d3 dc
       22 -11 21 127 25 -26 -17 -5 -107 -70 -26 -14 39 127 -45 -36
000020 fa e2 f8 fe f7 08 81 ba fe dd f2 fe f5 0a 81 ba
       -6 -30 -8 -2 -9 8 -127 -70 -2 -35 -14 -2 -11 10 -127 -70
000030 7f 07 10 f5 bd 12 02 fb 81 e3 f1 05 44 0c ff 0a
       127 7 16 -11 -67 18 2 -5 -127 -29 -15 5 68 12 -1 10
000040 16 2a f4 f5 e4 81 29 11 4c 15 f3 fa e9 fd f8 7f
       22 42 -12 -11 -28 -127 41 17 76 21 -13 -6 -23 -3 -8 127
000050 77 f5 85 09 a8 f7 2b 7f 81 68 08 db 56 bc 09 17
       119 -11 -123 9 -88 -9 43 127 -127 104 8 -37 86 -68 9 23
000060 7f dd 95 0d 34 fc f7 eb 7f 0a 0e f3 e3 1b 08 f3
       127 -35 -107 13 52 -4 -9 -21 127 10 14 -13 -29 27 8 -13
000070 85 ad 60 e7 49 f3 d7 81 21 4b 01 fc f7 81 ee 08
       -123 -83 96 -25 73 -13 -41 -127 33 75 1 -4 -9 -127 -18 8
000080 f5 be 0b 04 0b 7f 0c 06 20 82 b7 fa dd 7f c6 f0
       -11 -66 11 4 11 127 12 6 32 -126 -73 -6 -35 127 -58 -16
000090 29 ee f1 ef ed 1b 7f f3 fb 17 fe 81 f6 23 fd f6
       41 -18 -15 -17 -19 27 127 -13 -5 23 -2 -127 -10 35 -3 -10
0000a0 b2 e1 4a 0a 38 65 fc 81 eb fa 22 e7 ee 0c 81 b0
       -78 -31 74 10 56 101 -4 -127 -21 -6 34 -25 -18 12 -127 -80
0000b0 46 f6 08 7f ef f5 38 28 7f f3 8b f6 1d e7 0b 06
       70 -10 8 127 -17 -11 56 40 127 -13 -117 -10 29 -25 11 6
0000c0 e0 15 1c 22 0a 02 81 ab 7f 0b aa 08 0e fa 06 1a
       -32 21 28 34 10 2 -127 -85 127 11 -86 8 14 -6 6 26
0000d0 ff 36 e0 81 e4 17 03 fe 7f 13 92 fd 97 2f 16 4f
       -1 54 -32 -127 -28 23 3 -2 127 19 -110 -3 -105 47 22 79
0000e0 81 ea eb 11 37 0a fe 21 f8 81 f1 83 f6 1b ef ea
       -127 -22 -21 17 55 10 -2 33 -8 -127 -15 -125 -10 27 -17 -22
0000f0 01 5c 7f 22 25 98 71 23 b5 fb 81 2e 01 e9 5e 67
       1 92 127 34 37 -104 113 35 -75 -5 -127 46 1 -23 94 103

sequential/model/block_1_project/Conv2D;StatefulPartitionedCall/sequential/model/block_1_project/Conv2D i1 [8, 1, 1, 48]
000000 31 6a d8 47 fe fb e9 0a 3f bf 02 e6 0a 08 dd cb
       49 106 -40 71 -2 -5 -23 10 63 -65 2 -26 10 8 -35 -53
000010 01 ed 20 0f c6 e2 de 08 11 0f 1a fe 10 0b eb 1c
       1 -19 32 15 -58 -30 -34 8 17 15 26 -2 16 11 -21 28
000020 c1 0c 71 81 e9 16 f4 73 e3 0e 0c ff f2 25 19 d5
       -63 12 113 -127 -23 22 -12 115 -29 14 12 -1 -14 37 25 -43
000030 00 d0 23 34 f3 f3 ed ea 2e d4 5d 2d 14 0a d2 ae
       0 -48 35 52 -13 -13 -19 -22 46 -44 93 45 20 10 -46 -82
000040 7f 2a 11 0a b7 21 25 f3 cf a2 e0 cd f4 c4 2b d7
       127 42 17 10 -73 33 37 -13 -49 -94 -32 -51 -12 -60 43 -41
000050 f5 e9 e1 0c 05 ed 55 cd f3 21 c3 25 4d 40 0f 31
       -11 -23 -31 12 5 -19 85 -51 -13 33 -61 37 77 64 15 49
000060 4d e5 f2 f0 6c 6e 3d 4c e3 fa 01 e1 f9 2e 3b 1d
       77 -27 -14 -16 108 110 61 76 -29 -6 1 -31 -7 46 59 29
000070 e6 de 3c bc d7 ce d3 3c a3 a2 76 14 3c bd c4 14
       -26 -34 60 -68 -41 -50 -45 60 -93 -94 118 20 60 -67 -60 20
000080 81 56 6a 13 f7 fe fa 12 1b 44 10 c2 eb 12 37 d3
       -127 86 106 19 -9 -2 -6 18 27 68 16 -62 -21 18 55 -45
000090 51 e1 10 f5 79 7e 1b 2f db e2 1d 38 81 2a 45 18
       81 -31 16 -11 121 126 27 47 -37 -30 29 56 -127 42 69 24
0000a0 07 0b 4c 92 a2 12 23 5a 07 dd 36 1c 31 c6 02 f5
       7 11 76 -110 -94 18 35 90 7 -35 54 28 49 -58 2 -11
0000b0 89 3f c0 86 17 d9 43 cd 35 a0 91 e4 c1 2a f2 3f
       -119 63 -64 -122 23 -39 67 -51 53 -96 -111 -28 -63 42 -14 63
0000c0 25 2a e3 da f4 f6 ed ee 04 fd f8 f3 df ec 3f 33
       37 42 -29 -38 -12 -10 -19 -18 4 -3 -8 -13 -33 -20 63 51
0000d0 d8 ef de 2b 1e f3 f2 04 cf d7 fc 35 f3 0c ea 1c
       -40 -17 -34 43 30 -13 -14 4 -49 -41 -4 53 -13 12 -22 28
0000e0 e1 f0 1a 81 f7 1a 0b 36 07 f4 f5 e8 2b 02 56 eb
       -31 -16 26 -127 -9 26 11 54 7 -12 -11 -24 43 2 86 -21
0000f0 44 3a a4 32 07 06 f8 1e ac c4 c5 ea 23 15 2b 1a
       68 58 -92 50 7 6 -8 30 -84 -60 -59 -22 35 21 43 26

sequential/model/block_2_expand/Conv2D;StatefulPartitionedCall/sequential/model/block_2_expand/Conv2D i1 [48, 1, 1, 8]
000000 f0 20 0c 81 a0 06 1f 76 64 06 f3 ff a9 31 7f 18
       -16 32 12 -127 -96 6 31 118 100 6 -13 -1 -87 49 127 24
000010 fb 70 d9 e4 dd 58 cf 81 3f b8 a8 75 81 d5 fd e7
       -5 112 -39 -28 -35 88 -49 -127 63 -72 -88 117 -127 -43 -3 -25
000020 27 c1 2e f0 81 fe 32 1a ef 32 f6 a4 81 fc e1 08
       39 -63 46 -16 -127 -2 50 26 -17 50 -10 -92 -127 -4 -31 8
000030 33 ed 24 1f 7f e6 f8 86 0f 22 15 7f 17 fa fe 16
       51 -19 36 31 127 -26 -8 -122 15 34 21 127 23 -6 -2 22
000040 17 1a 0f d3 21 7f 0b e4 77 1d f4 13 c0 cb 7f 4d
       23 26 15 -45 33 127 11 -28 119 29 -12 19 -64 -53 127 77
000050 02 44 b7 df 03 7f 53 c6 f0 dd 81 62 c2 1c f3 4b
       2 68 -73 -33 3 127 83 -58 -16 -35 -127 98 -62 28 -13 75
000060 9e ab 37 30 1e 81 d5 0a 27 21 20 33 c6 7f 0e d8
       -98 -85 55 48 30 -127 -43 10 39 33 32 51 -58 127 14 -40
000070 07 a1 06 fc c1 b7 81 69 a9 2a fa 05 5d fe 81 d1
       7 -95 6 -4 -63 -73 -127 105 -87 42 -6 5 93 -2 -127 -47
000080 5b 4e 9c 81 37 7a 6f 23 95 78 81 29 f6 e9 16 8f
       91 78 -100 -127 55 122 111 35 -107 120 -127 41 -10 -23 22 -113
000090 23 fc a5 7f f6 dc d8 c4 75 10 0a 1e d5 08 7f 30
       35 -4 -91 127 -10 -36 -40 -60 117 16 10 30 -43 8 127 48
0000a0 27 b7 a7 7f 30 e3 e6 c1 16 32 7f 98 2b e5 1c 9a
       39 -73 -89 127 48 -29 -26 -63 22 50 127 -104 43 -27 28 -102
0000b0 af db 81 3a e4 21 06 79 4c 1a 20 29 81 6c 3b d6
       -81 -37 -127 58 -28 33 6 121 76 26 32 41 -127 108 59 -42
0000c0 f5 01 81 4f da 1e 2b 42 2f de b5 7f 34 ff db f3
       -11 1 -127 79 -38 30 43 66 47 -34 -75 127 52 -1 -37 -13
0000d0 b1 17 7f 9e ed 1f 3e f8 bc 50 7f 02 14 f6 4a 12
       -79 23 127 -98 -19 31 62 -8 -68 80 127 2 20 -10 74 18
0000e0 ca a0 26 81 ec 09 fc e7 b2 b2 ed 57 f9 81 f3 38
       -54 -96 38 -127 -20 9 -4 -25 -78 -78 -19 87 -7 -127 -13 56
0000f0 81 30 71 e3 28 25 40 19 c5 32 54 81 d3 11 22 3d
       -127 48 113 -29 40 37 64 25 -59 50 84 -127 -45 17 34 61

sequential/model/block_2_project/Conv2D;StatefulPartitionedCall/sequential/model/block_2_project/Conv2D i1 [8, 1, 1, 48]
000000 26 d1 65 43 1d d9 17 09 fd 38 e1 0f d0 ae 28 04
       38 -47 101 67 29 -39 23 9 -3 56 -31 15 -48 -82 40 4
000010 95 41 de 44 d5 46 02 e3 ff d3 42 e4 e8 19 e0 69
       -107 65 -34 68 -43 70 2 -29 -1 -45 66 -28 -24 25 -32 105
000020 c2 f6 df ad c2 d2 da f4 f5 3c 81 0a 37 18 1b 35
       -62 -10 -33 -83 -62 -46 -38 -12 -11 60 -127 10 55 24 27 53
000030 c9 e0 3c fa e5 1e dc e2 2e f6 fe e2 ef 0f 01 14
       -55 -32 60 -6 -27 30 -36 -30 46 -10 -2 -30 -17 15 1 20
000040 01 15 0f f5 c6 e4 b8 e9 17 db e2 df 16 b9 f8 81
       1 21 15 -11 -58 -28 -72 -23 23 -37 -30 -33 22 -71 -8 -127
000050 f9 c6 bd bb d8 ac e9 15 29 f0 51 97 cd f0 e8 fa
       -7 -58 -67 -69 -40 -84 -23 21 41 -16 81 -105 -51 -16 -24 -6
000060 c4 5d f9 26 10 0b 16 db 4c d4 47 53 64 10 20 c6
       -60 93 -7 38 16 11 22 -37 76 -44 71 83 100 16 32 -58
000070 61 01 07 1c f3 14 0e 7f 90 d5 09 eb ff 53 eb a9
       97 1 7 28 -13 20 14 127 -112 -43 9 -21 -1 83 -21 -87
000080 ec 02 05 b1 e8 08 da ef 57 ac 17 fb 1d 87 00 f1
       -20 2 5 -79 -24 8 -38 -17 87 -84 23 -5 29 -121 0 -15
000090 3d ed c2 20 55 ad 03 88 de f8 c4 a7 eb 7f f4 14
       61 -19 -62 32 85 -83 3 -120 -34 -8 -60 -89 -21 127 -12 20
0000a0 d3 f0 bd d0 20 53 f6 ca 71 2c 35 ba 20 a2 35 bf
       -45 -16 -67 -48 32 83 -10 -54 113 44 53 -70 32 -94 53 -65
0000b0 37 40 71 b5 d2 12 e1 2d 17 57 b0 1d fd 1a 08 26
       55 64 113 -75 -46 18 -31 45 23 87 -80 29 -3 26 8 38
0000c0 ca 1f d5 45 5e e3 1d d3 d9 fb c2 22 d3 f0 04 c4
       -54 31 -43 69 94 -29 29 -45 -39 -5 -62 34 -45 -16 4 -60
0000d0 0b 3f e0 d7 d5 25 ba c0 13 f6 14 da 21 da e1 3e
       11 63 -32 -41 -43 37 -70 -64 19 -10 20 -38 33 -38 -31 62
0000e0 f9 4d b9 b5 c1 c1 db ff 42 ca 7f 16 01 56 c8 cc
       -7 77 -71 -75 -63 -63 -37 -1 66 -54 127 22 1 86 -56 -52
0000f0 36 08 53 f8 fa 13 35 20 7f fe 45 01 48 36 1b c3
       54 8 83 -8 -6 19 53 32 127 -2 69 1 72 54 27 -61

sequential/model/block_3_expand/Conv2D;StatefulPartitionedCall/sequential/model/block_3_expand/Conv2D i1 [48, 1, 1, 8]
000000 29 16 cf 05 d6 37 81 1b 04 c1 82 fd f7 ea 7f 93
       41 22 -49 5 -42 55 -127 27 4 -63 -126 -3 -9 -22 127 -109
000010 81 ce b7 ce de 37 81 fa c7 dc 11 f4 e8 81 94 ec
       -127 -50 -73 -50 -34 55 -127 -6 -57 -36 17 -12 -24 -127 -108 -20
000020 d3 81 d2 12 3d 16 d7 d5 4c dd 5d 36 81 3f b2 96
       -45 -127 -46 18 61 22 -41 -43 76 -35 93 54 -127 63 -78 -106
000030 26 81 bf e0 f3 41 d3 ac e6 a9 c6 c0 49 81 01 16
       38 -127 -65 -32 -13 65 -45 -84 -26 -87 -58 -64 73 -127 1 22
000040 22 41 30 3d 22 cf fa 7f e6 c7 cc 08 2d f0 7f f4
       34 65 48 61 34 -49 -6 127 -26 -57 -52 8 45 -16 127 -12
000050 e1 13 81 16 17 14 63 92 04 dd de 01 81 13 04 35
       -31 19 -127 22 23 20 99 -110 4 -35 -34 1 -127 19 4 53
000060 5d 3f ea 27 b1 7f 53 f6 d1 fb 14 ec 2a 81 fc 45
       93 63 -22 39 -79 127 83 -10 -47 -5 20 -20 42 -127 -4 69
000070 98 cf 0a 25 0b 45 84 81 3d 55 2f 03 81 2a 72 ca
       -104 -49 10 37 11 69 -124 -127 61 85 47 3 -127 42 114 -54
000080 fd c9 05 4a f7 bb 07 81 b0 7f 1b f3 c1 cf ac af
       -3 -55 5 74 -9 -69 7 -127 -80 127 27 -13 -63 -49 -84 -81
000090 60 7f a9 9d 5d 66 a4 ae e4 4f f1 0b 81 07 ba 9e
       96 127 -87 -99 93 102 -92 -82 -28 79 -15 11 -127 7 -70 -98
0000a0 81 fd 06 0d 18 14 68 30 e1 fc 35 10 a4 95 81 1a
       -127 -3 6 13 24 20 104 48 -31 -4 53 16 -92 -107 -127 26
0000b0 fb dd d1 fa 81 03 05 3c 3d 04 f0 f2 7f 3f aa 51
       -5 -35 -47 -6 -127 3 5 60 61 4 -16 -14 127 63 -86 81
0000c0 7f 0a cd 19 a6 06 08 fb 1e c4 40 6d cf 81 1a 6c
       127 10 -51 25 -90 6 8 -5 30 -60 64 109 -49 -127 26 108
0000d0 16 7f 08 38 4f ed 15 ef 81 72 3e ed 7b bc 01 5f
       22 127 8 56 79 -19 21 -17 -127 114 62 -19 123 -68 1 95
0000e0 b6 b7 c5 dd 4f 81 16 f0 c9 e7 2f 29 7f a2 ab 48
       -74 -73 -59 -35 79 -127 22 -16 -55 -25 47 41 127 -94 -85 72
0000f0 7f 2f 8a 99 b3 a8 b4 bb 1a 03 27 40 81 08 23 05
       127 47 -118 -103 -77 -88 -76 -69 26 3 39 64 -127 8 35 5

sequential/model/block_3_project/Conv2D;StatefulPartitionedCall/sequential/model/block_3_project/Conv2D i1 [8, 1, 1, 48]
000000 ee e4 30 cd 39 56 45 5e 6d d1 ed 3b e4 eb 11 ed
       -18 -28 48 -51 57 86 69 94 109 -47 -19 59 -28 -21 17 -19
000010 2d 2b 0d cb e2 16 a8 da 20 f7 16 b6 dd 1c 2c 18
       45 43 13 -53 -30 22 -88 -38 32 -9 22 -74 -35 28 44 24
000020 19 30 40 10 78 ca b3 05 c9 bd e1 00 b8 aa 81 3a
       25 48 64 16 120 -54 -77 5 -55 -67 -31 0 -72 -86 -127 58
000030 f5 00 d8 31 01 0c d8 ef c7 19 12 56 e3 02 e6 7f
       -11 0 -40 49 1 12 -40 -17 -57 25 18 86 -29 2 -26 127
000040 27 3b 0b e2 d5 eb bd 15 0d f8 ef aa 30 f6 c7 be
       39 59 11 -30 -43 -21 -67 21 13 -8 -17 -86 48 -10 -57 -66
000050 3e e0 df c7 21 24 34 d7 06 45 32 d7 00 dc cd ea
       62 -32 -33 -57 33 36 52 -41 6 69 50 -41 0 -36 -51 -22
000060 06 b9 e5 fb e1 11 04 0b 6e 11 f9 ef e3 b4 25 08
       6 -71 -27 -5 -31 17 4 11 110 17 -7 -17 -29 -76 37 8
000070 01 c3 e9 fc 9d 32 06 1d 07 2e db e6 ec db 29 d1
       1 -61 -23 -4 -99 50 6 29 7 46 -37 -26 -20 -37 41 -47
000080 9d 1d ce 37 bd 3c ec e9 7f ec fd 29 1e 28 c7 dc
       -99 29 -50 55 -67 60 -20 -23 127 -20 -3 41 30 40 -57 -36
000090 e1 8e 60 3b 18 94 ee f2 81 7f 3d cb 36 0a ea 15
       -31 -114 96 59 24 -108 -18 -14 -127 127 61 -53 54 10 -22 21
0000a0 3a 23 e3 2e 4b 56 20 c1 0c 57 40 20 e3 b8 0e 0e
       58 35 -29 46 75 86 32 -63 12 87 64 32 -29 -72 14 14
0000b0 e7 06 35 0a ef ad d8 2b e5 f5 15 bb ae 12 00 1a
       -25 6 53 10 -17 -83 -40 43 -27 -11 21 -69 -82 18 0 26
0000c0 f5 37 ef 48 21 04 0a fe ca 4e 2f 49 01 15 3d 0e
       -11 55 -17 72 33 4 10 -2 -54 78 47 73 1 21 61 14
0000d0 07 99 f8 f2 59 f4 9f 3b 48 e9 1e 1d 30 1a f5 ca
       7 -103 -8 -14 89 -12 -97 59 72 -23 30 29 48 26 -11 -54
0000e0 cc 7f 03 10 3b e7 14 17 e6 2b ff e8 02 ce e0 13
       -52 127 3 16 59 -25 20 23 -26 43 -1 -24 2 -50 -32 19
0000f0 e5 01 f8 b8 81 21 76 1b 0d 3c e6 e4 96 f8 3b df
       -27 1 -8 -72 -127 33 118 27 13 60 -26 -28 -106 -8 59 -33

sequential/model/block_4_expand/Conv2D;StatefulPartitionedCall/sequential/model/block_4_expand/Conv2D i1 [48, 1, 1, 8]
000000 b0 81 de 1c dd f5 34 cf f4 7f 2c ac 05 a8 b8 5f
       -80 -127 -34 28 -35 -11 52 -49 -12 127 44 -84 5 -88 -72 95
000010 81 bf 24 08 45 04 1f f1 02 d8 81 c6 22 ce de 37
       -127 -65 36 8 69 4 31 -15 2 -40 -127 -58 34 -50 -34 55
000020 c4 8e 66 e8 7f c7 37 02 ea 42 36 a3 65 22 cb 7f
       -60 -114 102 -24 127 -57 55 2 -22 66 54 -93 101 34 -53 127
000030 81 64 36 4a cc 01 2b 82 29 f0 3b 1d 34 81 fc 68
       -127 100 54 74 -52 1 43 -126 41 -16 59 29 52 -127 -4 104
000040 f9 46 f5 dc 14 6c 7f b8 52 7f 0a ba ae bd c9 75
       -7 70 -11 -36 20 108 127 -72 82 127 10 -70 -82 -67 -55 117
000050 1f f7 1e 02 eb 23 81 b1 bb 0e 98 b8 7f 15 26 38
       31 -9 30 2 -21 35 -127 -79 -69 14 -104 -72 127 21 38 56
000060 55 24 e5 fb 7f 5b 0d 06 81 87 f8 37 9d 2f 44 09
       85 36 -27 -5 127 91 13 6 -127 -121 -8 55 -99 47 68 9
000070 f6 68 a6 7f c7 7d f0 22 ef ac dd a3 7f 41 df 3f
       -10 104 -90 127 -57 125 -16 34 -17 -84 -35 -93 127 65 -33 63
000080 44 ac 01 2d 25 f1 22 81 ac ac 81 64 09 61 4a 95
       68 -84 1 45 37 -15 34 -127 -84 -84 -127 100 9 97 74 -107
000090 50 f5 7f 0a de 8d af dd e9 7f 1d 1e 62 8b bc dd
       80 -11 127 10 -34 -115 -81 -35 -23 127 29 30 98 -117 -68 -35
0000a0 bc f3 81 d8 22 f9 fd fc 81 ea 2e 40 a6 8b 78 d1
       -68 -13 -127 -40 34 -7 -3 -4 -127 -22 46 64 -90 -117 120 -47
0000b0 37 f8 81 ba db f7 fa 34 e3 22 7f e9 a4 25 f6 9b
       55 -8 -127 -70 -37 -9 -6 52 -29 34 127 -23 -92 37 -10 -101
0000c0 a7 65 54 6d 7f 5f 00 d8 cc 81 b7 24 c1 25 33 fd
       -89 101 84 109 127 95 0 -40 -52 -127 -73 36 -63 37 51 -3
0000d0 66 78 81 c3 87 e6 bf 25 3a 36 c0 15 81 13 e1 f2
       102 120 -127 -61 -121 -26 -65 37 58 54 -64 21 -127 19 -31 -14
0000e0 e7 48 19 b4 4d 63 81 8a 2a fd ff b6 81 05 11 c9
       -25 72 25 -76 77 99 -127 -118 42 -3 -1 -74 -127 5 17 -55
0000f0 a6 fd 28 7f 33 15 db ee 0d 8a fe ad 81 3a c1 8f
       -90 -3 40 127 51 21 -37 -18 13 -118 -2 -83 -127 58 -63 -113

sequential/model/block_4_project/Conv2D;StatefulPartitionedCall/sequential/model/block_4_project/Conv2D i1 [8, 1, 1, 48]
000000 2e 30 b1 33 0d 16 a6 e3 06 eb 00 db f0 ff 2c 05
       46 48 -79 51 13 22 -90 -29 6 -21 0 -37 -16 -1 44 5
000010 2f ef 2f e9 13 de 29 01 0e e6 ed 12 f3 ff ee 00
       47 -17 47 -23 19 -34 41 1 14 -26 -19 18 -13 -1 -18 0
000020 2f 15 15 0e 7f 3b 20 e6 03 ec fa eb 50 1e 14 d0
       47 21 21 14 127 59 32 -26 3 -20 -6 -21 80 30 20 -48
000030 41 1a 09 fb 1e 5b f3 e9 21 3d db b4 71 ef 11 34
       65 26 9 -5 30 91 -13 -23 33 61 -37 -76 113 -17 17 52
000040 17 25 1e a4 7f e8 29 3a 2f 1e 2a 16 1e bc 3d 4e
       23 37 30 -92 127 -24 41 58 47 30 42 22 30 -68 61 78
000050 3c 6e 0e 78 48 20 19 1c 57 10 26 23 19 31 73 b9
       60 110 14 120 72 32 25 28 87 16 38 35 25 49 115 -71
000060 eb 0c 52 7f ce 17 fe 3c 22 4a 17 b2 d9 73 1a 2b
       -21 12 82 127 -50 23 -2 60 34 74 23 -78 -39 115 26 43
000070 ad a0 50 05 01 3e c6 ae e3 d9 1a f8 91 15 02 f9
       -83 -96 80 5 1 62 -58 -82 -29 -39 26 -8 -111 21 2 -7
000080 db e3 a9 d3 12 1a a7 ed e7 c7 dc 17 47 b3 e3 1c
       -37 -29 -87 -45 18 26 -89 -19 -25 -57 -36 23 71 -77 -29 28
000090 e6 34 b1 f5 12 b0 06 48 6a ac d6 0b f9 ec 0c 40
       -26 52 -79 -11 18 -80 6 72 106 -84 -42 11 -7 -20 12 64
0000a0 17 09 f3 e6 fb 16 b2 26 e9 e2 26 f7 40 df 2b cb
       23 9 -13 -26 -5 22 -78 38 -23 -30 38 -9 64 -33 43 -53
0000b0 25 ee e3 ce 81 fd af 12 e6 c6 26 fc ca 10 f6 dc
       37 -18 -29 -50 -127 -3 -81 18 -26 -58 38 -4 -54 16 -10 -36
0000c0 38 ea 24 ea c2 48 1b 44 83 ce 37 2e 4d c6 b9 bd
       56 -22 36 -22 -62 72 27 68 -125 -50 55 46 77 -58 -71 -67
0000d0 5a 43 3e e1 12 9f ed 2e df 03 cd 81 c8 c6 5f 29
       90 67 62 -31 18 -97 -19 46 -33 3 -51 -127 -56 -58 95 41
0000e0 55 03 70 5d 41 44 38 25 0a 27 cd e1 58 48 5d cc
       85 3 112 93 65 68 56 37 10 39 -51 -31 88 72 93 -52
0000f0 23 4e 11 60 1c 1b cc 99 9c 1e f2 00 1a 3f 25 b8
       35 78 17 96 28 27 -52 -103 -100 30 -14 0 26 63 37 -72

sequential/model/block_5_expand/Conv2D;StatefulPartitionedCall/sequential/model/block_5_expand/Conv2D i1 [48, 1, 1, 8]
000000 81 29 f0 f2 3d 21 07 cf fb cd e2 f5 c8 81 0d 10
       -127 41 -16 -14 61 33 7 -49 -5 -51 -30 -11 -56 -127 13 16
000010 b8 45 03 c9 cc 29 c0 7f 38 2c 35 ee ce 81 2c ec
       -72 69 3 -55 -52 41 -64 127 56 44 53 -18 -50 -127 44 -20
000020 11 3c 86 20 81 57 2d 22 e1 2d 1e df ac 81 c4 f8
       17 60 -122 32 -127 87 45 34 -31 45 30 -33 -84 -127 -60 -8
000030 c9 7f 65 db ba de 13 d7 f9 fe 25 42 01 81 fb 39
       -55 127 101 -37 -70 -34 19 -41 -7 -2 37 66 1 -127 -5 57
000040 7f 1a b1 4e ab bd 94 f9 5d d4 bb b5 08 eb d1 7f
       127 26 -79 78 -85 -67 -108 -7 93 -44 -69 -75 8 -21 -47 127
000050 a7 03 0a 7f 04 47 1a 9f 19 12 39 ef 0a 77 7f 5e
       -89 3 10 127 4 71 26 -97 25 18 57 -17 10 119 127 94
000060 bb a9 d4 a4 7f e5 ec 26 e7 fc f6 32 13 81 2c 45
       -69 -87 -44 -92 127 -27 -20 38 -25 -4 -10 50 19 -127 44 69
000070 51 56 79 14 4d 81 9f e3 d6 4b 7f 3d f7 14 2d b5
       81 86 121 20 77 -127 -97 -29 -42 75 127 61 -9 20 45 -75
000080 9d d5 2f b6 7f 06 c8 ff 24 d0 d2 01 f5 7f e7 29
       -99 -43 47 -74 127 6 -56 -1 36 -48 -46 1 -11 127 -25 41
000090 e5 7f 51 cf c0 30 57 a4 10 6b 54 7f e4 20 27 22
       -27 127 81 -49 -64 48 87 -92 16 107 84 127 -28 32 39 34
0000a0 09 07 41 81 c2 ff 45 f0 97 4f 25 81 79 49 7b 07
       9 7 65 -127 -62 -1 69 -16 -105 79 37 -127 121 73 123 7
0000b0 4b df a1 48 36 ca c7 7f 25 b0 81 d8 40 f4 c1 5d
       75 -33 -95 72 54 -54 -57 127 37 -80 -127 -40 64 -12 -63 93
0000c0 2b ec 9e 12 c6 23 81 7a f1 ea 37 0b 7f f0 ab d2
       43 -20 -98 18 -58 35 -127 122 -15 -22 55 11 127 -16 -85 -46
0000d0 0b 66 7f e0 de ee 35 bc da 25 7f aa 16 13 59 87
       11 102 127 -32 -34 -18 53 -68 -38 37 127 -86 22 19 89 -121
0000e0 3d f7 5b 7f 4a e3 23 65 46 4a 6b 14 c4 1f 81 5b
       61 -9 91 127 74 -29 35 101 70 74 107 20 -60 31 -127 91
0000f0 2a f8 a9 3f 81 d8 d8 39 17 7f 61 c0 b7 26 6b 87
       42 -8 -87 63 -127 -40 -40 57 23 127 97 -64 -73 38 107 -121

sequential/model/block_5_project/Conv2D;StatefulPartitionedCall/sequential/model/block_5_project/Conv2D i1 [8, 1, 1, 48]
000000 7f e9 16 e3 17 35 08 26 6b b1 39 09 d6 40 13 d3
       127 -23 22 -29 23 53 8 38 107 -79 57 9 -42 64 19 -45
000010 0b e6 e8 ef 0a c6 08 eb ca df da dc e3 4b e9 24
       11 -26 -24 -17 10 -58 8 -21 -54 -33 -38 -36 -29 75 -23 36
000020 1a db 0e e3 3f c1 cb 06 1c ec ba ff 39 e5 37 dd
       26 -37 14 -29 63 -63 -53 6 28 -20 -70 -1 57 -27 55 -35
000030 2f 00 f8 3b 33 3a 13 20 41 af fe 04 29 15 dc f4
       47 0 -8 59 51 58 19 32 65 -81 -2 4 41 21 -36 -12
000040 dd d5 bd fb 05 d0 2f 4c fd c3 fc 28 e9 35 cb 7f
       -35 -43 -67 -5 5 -48 47 76 -3 -61 -4 40 -23 53 -53 127
000050 e7 2c eb e9 c7 f2 f7 e7 d1 ee dd 29 14 fb 08 ab
       -25 44 -21 -23 -57 -14 -9 -25 -47 -18 -35 41 20 -5 8 -85
000060 db e5 ad 23 ac e1 f4 30 94 aa a7 df db 31 81 fd
       -37 -27 -83 35 -84 -31 -12 48 -108 -86 -89 -33 -37 49 -127 -3
000070 4b a7 1f ed 7c 56 e6 03 32 61 10 9e cc 03 41 03
       75 -89 31 -19 124 86 -26 3 50 97 16 -98 -52 3 65 3
000080 e3 2b 49 bd 44 fa 54 62 d3 67 2e fd ad 47 d8 49
       -29 43 73 -67 68 -6 84 98 -45 103 46 -3 -83 71 -40 73
000090 fe ec f6 24 e8 04 f6 2c 49 5b 81 e3 16 eb ea 4e
       -2 -20 -10 36 -24 4 -10 44 73 91 -127 -29 22 -21 -22 78
0000a0 c8 ef fa 31 ea 01 4a 14 08 0c cd 35 dc 19 db e5
       -56 -17 -6 49 -22 1 74 20 8 12 -51 53 -36 25 -37 -27
0000b0 0d 1c 21 11 34 f9 2c 02 c7 55 45 14 1b f5 e1 d7
       13 28 33 17 52 -7 44 2 -57 85 69 20 27 -11 -31 -41
0000c0 e5 b6 11 d2 02 5c c5 ba 01 d0 49 24 c6 e8 f0 1b
       -27 -74 17 -46 2 92 -59 -70 1 -48 73 36 -58 -24 -16 27
0000d0 44 0c e5 2d b6 e5 73 ef a4 ef f9 0e 13 e9 f4 3d
       68 12 -27 45 -74 -27 115 -17 -92 -17 -7 14 19 -23 -12 61
0000e0 cb 2e e9 37 de 25 fc 13 db 27 de 29 7f 37 f5 04
       -53 46 -23 55 -34 37 -4 19 -37 39 -34 41 127 55 -11 4
0000f0 ba be 39 81 ec 15 dc c9 fc 47 c8 47 ad 13 31 09
       -70 -66 57 -127 -20 21 -36 -55 -4 71 -56 71 -83 19 49 9

sequential/model/block_6_expand/Conv2D;StatefulPartitionedCall/sequential/model/block_6_expand/Conv2D i1 [48, 1, 1, 8]
000000 f4 0c 7f ee fc 36 fc ab 58 c3 3f b4 f0 bb 7f 18
       -12 12 127 -18 -4 54 -4 -85 88 -61 63 -76 -16 -69 127 24
000010 3e 3f 4b b7 bc 18 7f e6 01 19 05 ea 13 bf 7f 07
       62 63 75 -73 -68 24 127 -26 1 25 5 -22 19 -65 127 7
000020 7f d1 c4 d8 9f c0 e5 4e 1c 4a 7f fe 17 d5 1d d5
       127 -47 -60 -40 -97 -64 -27 78 28 74 127 -2 23 -43 29 -43
000030 71 6f ee 7f b0 19 17 5f e2 f9 fe 25 23 86 81 da
       113 111 -18 127 -80 25 23 95 -30 -7 -2 37 35 -122 -127 -38
000040 6f 45 d5 4d c5 1c 81 c9 7f e9 da 2f 02 d7 16 ad
       111 69 -43 77 -59 28 -127 -55 127 -23 -38 47 2 -41 22 -83
000050 48 17 f8 0d e3 7f 24 08 7c e4 f7 81 64 bf c6 4e
       72 23 -8 13 -29 127 36 8 124 -28 -9 -127 100 -65 -58 78
000060 c6 6c 4d d9 0d 43 a8 7f 7f ff a2 0c 1d ab 1f a0
       -58 108 77 -39 13 67 -88 127 127 -1 -94 12 29 -85 31 -96
000070 6f 1f ff ed 81 1d b1 f2 0c 0e a4 e3 81 cc 70 60
       111 31 -1 -19 -127 29 -79 -14 12 14 -92 -29 -127 -52 112 96
000080 fd ca 77 fb 7f d2 c0 dc 15 ef 54 f5 7f c9 bc fe
       -3 -54 119 -5 127 -46 -64 -36 21 -17 84 -11 127 -55 -68 -2
000090 6f d7 7f 31 e2 1d da ff 44 2f 38 bd d7 81 13 d3
       111 -41 127 49 -30 29 -38 -1 68 47 56 -67 -41 -127 19 -45
0000a0 2b db 38 7f 0b bf b3 50 58 f1 ba 81 35 c4 07 6a
       43 -37 56 127 11 -65 -77 80 88 -15 -70 -127 53 -60 7 106
0000b0 d2 81 c6 c5 36 e2 6e bb f4 15 1d d5 94 81 06 e6
       -46 -127 -58 -59 54 -30 110 -69 -12 21 29 -43 -108 -127 6 -26
0000c0 7f 08 3d 33 f4 e3 9f 49 65 3d ee b8 e9 f2 e6 7f
       127 8 61 51 -12 -29 -97 73 101 61 -18 -72 -23 -14 -26 127
0000d0 ac e1 17 81 69 01 d3 ae 6f 7f f7 ca 0b 3e 1c 06
       -84 -31 23 -127 105 1 -45 -82 111 127 -9 -54 11 62 28 6
0000e0 16 7f fa 0a 03 c6 f6 78 77 17 64 71 33 d9 81 39
       22 127 -6 10 3 -58 -10 120 119 23 100 113 51 -39 -127 57
0000f0 7f 8f b0 6c 37 07 b4 5e 63 ae 17 36 ab 94 81 3a
       127 -113 -80 108 55 7 -76 94 99 -82 23 54 -85 -108 -127 58

sequential/model/block_6_project/Conv2D;StatefulPartitionedCall/sequential/model/block_6_project/Conv2D i1 [8, 1, 1, 48]
000000 25 d5 2f f0 12 ba cd df 08 16 f7 c2 16 f0 57 dc
       37 -43 47 -16 18 -70 -51 -33 8 22 -9 -62 22 -16 87 -36
000010 f1 f1 3e 09 1c 95 e2 45 d0 f4 0e b7 0e 37 e8 05
       -15 -15 62 9 28 -107 -30 69 -48 -12 14 -73 14 55 -24 5
000020 f4 ec 07 ed 4c 1d ec 35 1f 28 7f 29 f4 dd 10 ea
       -12 -20 7 -19 76 29 -20 53 31 40 127 41 -12 -35 16 -22
000030 4d bf 30 00 b8 e5 89 bd 24 dd f2 e3 70 24 b2 21
       77 -65 48 0 -72 -27 -119 -67 36 -35 -14 -29 112 36 -78 33
000040 d1 af 25 32 1c 7f 3f a9 e8 1f fc 1d f4 2c 06 06
       -47 -81 37 50 28 127 63 -87 -24 31 -4 29 -12 44 6 6
000050 1f 1d 23 4f 8c e9 43 1d 8a ec 36 99 07 70 d2 46
       31 29 35 79 -116 -23 67 29 -118 -20 54 -103 7 112 -46 70
000060 21 4d fa 06 cf d9 1e f9 dc 43 45 04 aa c1 44 18
       33 77 -6 6 -49 -39 30 -7 -36 67 69 4 -86 -63 68 24
000070 24 00 f3 35 d1 4e eb a3 e9 ea 1f 1b f5 e6 81 16
       36 0 -13 53 -47 78 -21 -93 -23 -22 31 27 -11 -26 -127 22
000080 d1 e9 e5 06 c4 d3 09 44 14 b1 06 f9 f5 36 1d d3
       -47 -23 -27 6 -60 -45 9 68 20 -79 6 -7 -11 54 29 -45
000090 1c 17 e5 d8 f7 1c 2a e9 f8 09 f2 1c 03 f9 24 03
       28 23 -27 -40 -9 28 42 -23 -8 9 -14 28 3 -7 36 3
0000a0 ff 22 09 10 f0 81 fc eb df 03 d8 26 0a 01 31 1d
       -1 34 9 16 -16 -127 -4 -21 -33 3 -40 38 10 1 49 29
0000b0 1e eb ec f4 e7 f2 19 19 f7 eb 28 e0 1e 28 0b 07
       30 -21 -20 -12 -25 -14 25 25 -9 -21 40 -32 30 40 11 7
0000c0 35 36 da ed ae fa e5 ea c9 18 fc d5 eb 01 3b e7
       53 54 -38 -19 -82 -6 -27 -22 -55 24 -4 -43 -21 1 59 -25
0000d0 06 20 0c e6 15 7f e3 39 da 07 0a 1c 03 25 1a 16
       6 32 12 -26 21 127 -29 57 -38 7 10 28 3 37 26 22
0000e0 f7 11 09 0a be 09 ff 22 ea 19 92 c9 55 06 16 dc
       -9 17 9 10 -66 9 -1 34 -22 25 -110 -55 85 6 22 -36
0000f0 2a e3 30 df cd 23 33 ee 11 36 b1 e5 fb f3 29 f9
       42 -29 48 -33 -51 35 51 -18 17 54 -79 -27 -5 -13 41 -7

sequential/model/block_7_expand/Conv2D;StatefulPartitionedCall/sequential/model/block_7_expand/Conv2D i1 [48, 1, 1, 8]
000000 b4 4a 46 3b 81 f1 eb 6a 78 3a c7 7f fe c8 77 4f
       -76 74 70 59 -127 -15 -21 106 120 58 -57 127 -2 -56 119 79
000010 df cf b9 27 7f fb d5 03 18 7e 44 9d 2e 60 7f 5a
       -33 -49 -71 39 127 -5 -43 3 24 126 68 -99 46 96 127 90
000020 f3 e9 7f f0 c2 ee 2e d2 92 8f d9 d7 4d 6f f2 7f
       -13 -23 127 -16 -62 -18 46 -46 -110 -113 -39 -41 77 111 -14 127
000030 81 3c f6 ed 9d 2c 9d 1d 7f 48 39 66 eb c8 66 38
       -127 60 -10 -19 -99 44 -99 29 127 72 57 102 -21 -56 102 56
000040 c5 ee be 81 ce 97 d0 3a 09 59 7f b5 43 db e0 10
       -59 -18 -66 -127 -50 -105 -48 58 9 89 127 -75 67 -37 -32 16
000050 dc 9a 52 17 81 4d 78 e1 9e 81 3e 3c 14 f9 16 c9
       -36 -102 82 23 -127 77 120 -31 -98 -127 62 60 20 -7 22 -55
000060 81 f6 33 d3 47 c3 ff 01 ed f0 0f 7f 00 c4 da 11
       -127 -10 51 -45 71 -61 -1 1 -19 -16 15 127 0 -60 -38 17
000070 b3 f2 e6 2c 0a 81 28 0c ee 30 b0 14 a8 7f 1f 42
       -77 -14 -26 44 10 -127 40 12 -18 48 -80 20 -88 127 31 66
000080 a7 be 06 30 9c 1b dc 81 ff d4 3c 3f 09 05 7f d5
       -89 -66 6 48 -100 27 -36 -127 -1 -44 60 63 9 5 127 -43
000090 2a 12 41 63 d8 69 7f e5 d4 e8 d7 76 81 11 d7 00
       42 18 65 99 -40 105 127 -27 -44 -24 -41 118 -127 17 -41 0
0000a0 d0 c9 81 58 a9 75 a4 14 d7 34 ee d0 30 20 81 fd
       -48 -55 -127 88 -87 117 -92 20 -41 52 -18 -48 48 32 -127 -3
0000b0 ff 1c 45 0b 7f 0f 31 0d 78 26 d9 68 81 fd 27 03
       -1 28 69 11 127 15 49 13 120 38 -39 104 -127 -3 39 3
0000c0 be 43 d7 72 c9 f0 7f 72 cb e9 e4 7f 9a e8 b9 7d
       -66 67 -41 114 -55 -16 127 114 -53 -23 -28 127 -102 -24 -71 125
0000d0 62 1c b9 7f b7 e5 0c 04 2c e3 73 45 cb 35 7f ad
       98 28 -71 127 -73 -27 12 4 44 -29 115 69 -53 53 127 -83
0000e0 7f 96 e6 fa 18 0b 4a c7 e6 81 da 34 4c 50 2d 25
       127 -106 -26 -6 24 11 74 -57 -26 -127 -38 52 76 80 45 37
0000f0 c9 81 8a 7f 2a d0 5f 4c 7f 1c ba 5e e9 36 db 0b
       -55 -127 -118 127 42 -48 95 76 127 28 -70 94 -23 54 -37 11

sequential/model/block_7_project/Conv2D;StatefulPartitionedCall/sequential/model/block_7_project/Conv2D i1 [8, 1, 1, 48]
000000 ed 20 fd 3f 20 c1 0c b3 21 10 f2 16 a0 e6 28 dd
       -19 32 -3 63 32 -63 12 -77 33 16 -14 22 -96 -26 40 -35
000010 2d 0c 01 81 da 2f b3 55 56 13 bf 17 e8 55 b9 15
       45 12 1 -127 -38 47 -77 85 86 19 -65 23 -24 85 -71 21
000020 00 1a dc 3f de 30 f5 66 08 3d 3b f2 fe 1a df ec
       0 26 -36 63 -34 48 -11 102 8 61 59 -14 -2 26 -33 -20
000030 d1 e7 30 16 21 e1 0a 02 f0 e8 32 1d f9 03 07 41
       -47 -25 48 22 33 -31 10 2 -16 -24 50 29 -7 3 7 65
000040 1c cb 03 7f 24 32 32 fc e6 f6 20 ee f6 e0 0e 5c
       28 -53 3 127 36 50 50 -4 -26 -10 32 -18 -10 -32 14 92
000050 62 65 da df 61 17 35 ff 5e fc ca 03 e8 1e 5b 2e
       98 101 -38 -33 97 23 53 -1 94 -4 -54 3 -24 30 91 46
000060 42 0c 13 81 dc d6 ef e7 09 2d 02 ee 0e fd f8 f8
       66 12 19 -127 -36 -42 -17 -25 9 45 2 -18 14 -3 -8 -8
000070 12 14 38 74 1a ef 04 04 0f 11 00 22 fc fc d3 29
       18 20 56 116 26 -17 4 4 15 17 0 34 -4 -4 -45 41
000080 ef 25 e5 df f1 fc 05 2b f4 f6 d1 0d 00 cf e1 ef
       -17 37 -27 -33 -15 -4 5 43 -12 -10 -47 13 0 -49 -31 -17
000090 1b b1 03 99 e7 18 eb e5 2b fc 17 e9 ce 29 d9 fb
       27 -79 3 -103 -25 24 -21 -27 43 -4 23 -23 -50 41 -39 -5
0000a0 25 23 4c 3b 2c 3c 1b 1e da e3 ff 56 ec 07 05 fd
       37 35 76 59 44 60 27 30 -38 -29 -1 86 -20 7 5 -3
0000b0 11 18 d8 f1 7f cc 01 00 d2 c7 e3 14 e2 0a c2 05
       17 24 -40 -15 127 -52 1 0 -46 -57 -29 20 -30 10 -62 5
0000c0 21 2b db 42 37 e1 dd 01 38 2c fa 0b 5d 28 f5 f3
       33 43 -37 66 55 -31 -35 1 56 44 -6 11 93 40 -11 -13
0000d0 f1 db d6 1c c7 a3 7f b1 ee dd 2b 03 12 de ef 05
       -15 -37 -42 28 -57 -93 127 -79 -18 -35 43 3 18 -34 -17 5
0000e0 1a d7 10 fb f6 20 ec c5 2d ea 0c 17 0d 25 b3 09
       26 -41 16 -5 -10 32 -20 -59 45 -22 12 23 13 37 -77 9
0000f0 cd da f1 d2 ea 42 e6 09 0b d9 b2 cf e4 16 7f 36
       -51 -38 -15 -46 -22 66 -26 9 11 -39 -78 -49 -28 22 127 54

sequential/model/block_8_expand/Conv2D;StatefulPartitionedCall/sequential/model/block_8_expand/Conv2D i1 [48, 1, 1, 8]
000000 f4 f7 a5 5d 94 7f d2 00 db f6 08 c5 81 0e b3 d8
       -12 -9 -91 93 -108 127 -46 0 -37 -10 8 -59 -127 14 -77 -40
000010 81 86 86 a3 d1 33 f5 c8 33 04 24 47 d0 eb 56 7f
       -127 -122 -122 -93 -47 51 -11 -56 51 4 36 71 -48 -21 86 127
000020 81 bc 74 ad 2e eb 07 b6 a8 29 03 22 81 48 d3 e1
       -127 -68 116 -83 46 -21 7 -74 -88 41 3 34 -127 72 -45 -31
000030 26 fb 81 3a c9 05 29 07 23 02 81 e6 fe 7c 24 dc
       38 -5 -127 58 -55 5 41 7 35 2 -127 -26 -2 124 36 -36
000040 c5 1f af 23 64 7f a2 2d dc c9 45 9a 07 e7 81 c8
       -59 31 -81 35 100 127 -94 45 -36 -55 69 -102 7 -25 -127 -56
000050 e7 ac 14 c5 fb e7 11 81 a6 f1 2a 96 63 8b 81 e2
       -25 -84 20 -59 -5 -25 17 -127 -90 -15 42 -106 99 -117 -127 -30
000060 33 0c 12 05 27 82 54 7f 8f 81 f7 a3 04 d8 db ee
       51 12 18 5 39 -126 84 127 -113 -127 -9 -93 4 -40 -37 -18
000070 56 1e 81 5c 93 bc cc f0 94 66 cb fe 85 f7 7f c1
       86 30 -127 92 -109 -68 -52 -16 -108 102 -53 -2 -123 -9 127 -63
000080 7f d4 0d 33 0b d3 f7 11 e3 34 7f 17 d8 11 40 bc
       127 -44 13 51 11 -45 -9 17 -29 52 127 23 -40 17 64 -68
000090 bc 38 e1 41 7f 30 fe 0f cc 45 30 6f 92 7f 0b db
       -68 56 -31 65 127 48 -2 15 -52 69 48 111 -110 127 11 -37
0000a0 63 7f 3e 38 7b d4 a6 0e cb 33 e5 ce 12 06 7f d4
       99 127 62 56 123 -44 -90 14 -53 51 -27 -50 18 6 127 -44
0000b0 0f e9 f2 81 26 ea e7 2e 00 7f d6 12 9d 24 f7 3c
       15 -23 -14 -127 38 -22 -25 46 0 127 -42 18 -99 36 -9 60
0000c0 22 2f 38 fa de 5a 81 09 71 e7 59 1c e4 7f 0c 36
       34 47 56 -6 -34 90 -127 9 113 -25 89 28 -28 127 12 54
0000d0 76 16 bc 3c 4c 67 7f ed 33 b3 54 ac a2 96 6e 81
       118 22 -68 60 76 103 127 -19 51 -77 84 -84 -94 -106 110 -127
0000e0 de 89 99 00 81 07 d4 00 55 06 48 db 6d 08 81 4f
       -34 -119 -103 0 -127 7 -44 0 85 6 72 -37 109 8 -127 79
0000f0 cf 3f 06 2e a8 9e 51 7f 81 e5 59 ec 3a 1a 2f e2
       -49 63 6 46 -88 -98 81 127 -127 -27 89 -20 58 26 47 -30

sequential/model/block_8_project/Conv2D;StatefulPartitionedCall/sequential/model/block_8_project/Conv2D i1 [8, 1, 1, 48]
000000 2e 03 35 00 55 2b f3 13 f4 06 1d 2a da d7 ec e4
       46 3 53 0 85 43 -13 19 -12 6 29 42 -38 -41 -20 -28
000010 d7 ff ce fe 16 e4 d8 19 f7 14 37 fc ec 12 e7 02
       -41 -1 -50 -2 22 -28 -40 25 -9 20 55 -4 -20 18 -25 2
000020 0d d6 fc ca 0d 81 e8 42 d9 f5 bc ec 39 df d5 fc
       13 -42 -4 -54 13 -127 -24 66 -39 -11 -68 -20 57 -33 -43 -4
000030 b6 29 2d 2b 1c fb 29 14 36 db 18 8f 0d f3 11 1c
       -74 41 45 43 28 -5 41 20 54 -37 24 -113 13 -13 17 28
000040 18 2c fb 3c 00 d1 e5 2c 1f ed f7 2c d3 f5 f8 55
       24 44 -5 60 0 -47 -27 44 31 -19 -9 44 -45 -11 -8 85
000050 f4 f6 0b 7f ee 1a 12 d1 00 38 04 1b 8a 0b d3 e1
       -12 -10 11 127 -18 26 18 -47 0 56 4 27 -118 11 -45 -31
000060 d7 f5 1c 03 bc 04 0c 81 c2 0b 0d 40 20 f3 d4 c1
       -41 -11 28 3 -68 4 12 -127 -62 11 13 64 32 -13 -44 -63
000070 c1 56 21 2e 0d e9 16 e0 e4 25 ab 25 e9 40 d1 fc
       -63 86 33 46 13 -23 22 -32 -28 37 -85 37 -23 64 -47 -4
000080 c4 e0 2d 06 2b 00 19 f4 fb 1c f9 bd 87 cd 5a fd
       -60 -32 45 6 43 0 25 -12 -5 28 -7 -67 -121 -51 90 -3
000090 b1 16 df 36 19 0e 37 e5 24 cc 0e c5 fa 28 0b f9
       -79 22 -33 54 25 14 55 -27 36 -52 14 -59 -6 40 11 -7
0000a0 d5 43 59 35 18 56 a1 03 19 08 13 12 1d 0b 02 fa
       -43 67 89 53 24 86 -95 3 25 8 19 18 29 11 2 -6
0000b0 f3 fa e2 4f e2 dc ec 8f dc 0a 0b 17 81 40 dd d4
       -13 -6 -30 79 -30 -36 -20 -113 -36 10 11 23 -127 64 -35 -44
0000c0 04 bf 0f 0a c3 26 e8 ec 27 fd f8 fa f2 e4 43 e6
       4 -65 15 10 -61 38 -24 -20 39 -3 -8 -6 -14 -28 67 -26
0000d0 0c 14 fd fc 13 19 22 dd 3a f3 20 34 c5 01 22 1e
       12 20 -3 -4 19 25 34 -35 58 -13 32 52 -59 1 34 30
0000e0 18 29 f8 ee d7 68 19 e9 04 07 ce f6 d7 0d 7f 11
       24 41 -8 -18 -41 104 25 -23 4 7 -50 -10 -41 13 127 17
0000f0 c2 17 e5 02 2c fc 31 6a 53 c2 e7 9e 21 0c 81 b3
       -62 23 -27 2 44 -4 49 106 83 -62 -25 -98 33 12 -127 -77

sequential/model/block_9_expand/Conv2D;StatefulPartitionedCall/sequential/model/block_9_expand/Conv2D i1 [48, 1, 1, 8]
000000 fb 9e a9 25 ef c1 81 e8 1b db 95 7f cb c7 f5 14
       -5 -98 -87 37 -17 -63 -127 -24 27 -37 -107 127 -53 -57 -11 20
000010 4c 3d 3a b2 81 4e fb da 3e 4f 64 ab 43 fb 81 db
       76 61 58 -78 -127 78 -5 -38 62 79 100 -85 67 -5 -127 -37
000020 45 40 7f bc 1f d3 00 a8 db 04 d2 fd 06 09 81 11
       69 64 127 -68 31 -45 0 -88 -37 4 -46 -3 6 9 -127 17
000030 0b c6 21 ec 26 d8 81 ce ff 1e b9 81 44 ed 4a a4
       11 -58 33 -20 38 -40 -127 -50 -1 30 -71 -127 68 -19 74 -92
000040 53 a3 07 81 54 f2 ca d7 56 54 d6 4e 7f 0c eb f8
       83 -93 7 -127 84 -14 -54 -41 86 84 -42 78 127 12 -21 -8
000050 07 a5 cb 43 81 5d 0d 25 21 b0 03 21 2b 43 81 dd
       7 -91 -53 67 -127 93 13 37 33 -80 3 33 43 67 -127 -35
000060 8d 7f d0 ae cc b4 c1 49 28 a3 9f 72 81 fc c2 c7
       -115 127 -48 -82 -52 -76 -63 73 40 -93 -97 114 -127 -4 -62 -57
000070 f8 e2 39 06 cd 67 41 7f 07 7f a6 6f d2 37 fb d7
       -8 -30 57 6 -51 103 65 127 7 127 -90 111 -46 55 -5 -41
000080 d2 ff 81 e8 08 b3 22 19 67 55 f8 27 7f a0 0f e6
       -46 -1 -127 -24 8 -77 34 25 103 85 -8 39 127 -96 15 -26
000090 2d 6b 16 bf f1 ff 7f 28 af b6 03 32 35 c7 7f 3d
       45 107 22 -65 -15 -1 127 40 -81 -74 3 50 53 -57 127 61
0000a0 e1 c9 42 b4 94 81 55 9a 22 18 d9 39 b8 7f 19 31
       -31 -55 66 -76 -108 -127 85 -102 34 24 -39 57 -72 127 25 49
0000b0 d6 2c a3 0f 05 ce 7f d5 1b f9 ff 1e 68 e2 81 1a
       -42 44 -93 15 5 -50 127 -43 27 -7 -1 30 104 -30 -127 26
0000c0 1d 00 4b a4 c2 7f d6 f0 b2 d4 36 a0 9d 7f eb bf
       29 0 75 -92 -62 127 -42 -16 -78 -44 54 -96 -99 127 -21 -65
0000d0 7f d0 a5 25 6a 23 19 12 2f b1 9e 7f cc d4 b0 de
       127 -48 -91 37 106 35 25 18 47 -79 -98 127 -52 -44 -80 -34
0000e0 95 ad 5c 81 2b 01 26 ab fa 12 6a e7 c8 ed 81 ec
       -107 -83 92 -127 43 1 38 -85 -6 18 106 -25 -56 -19 -127 -20
0000f0 d0 5b 7f 8d a6 a4 05 91 ee 6c 81 de 97 17 45 82
       -48 91 127 -115 -90 -92 5 -111 -18 108 -127 -34 -105 23 69 -126

sequential/model/block_9_project/Conv2D;StatefulPartitionedCall/sequential/model/block_9_project/Conv2D i1 [8, 1, 1, 48]
000000 3e 1a 18 ab 24 d1 d3 11 c7 12 2f 30 be 3b c2 12
       62 26 24 -85 36 -47 -45 17 -57 18 47 48 -66 59 -62 18
000010 24 1f 2b 29 db 5a ce 0e c8 c5 e2 a8 28 2b db 25
       36 31 43 41 -37 90 -50 14 -56 -59 -30 -88 40 43 -37 37
000020 78 1b 5d 70 2e f5 d2 c3 fe 23 20 06 25 81 a0 23
       120 27 93 112 46 -11 -46 -61 -2 35 32 6 37 -127 -96 35
000030 dd cb fd 1b 0d 01 5f c4 2f 11 d3 c5 29 a8 f4 50
       -35 -53 -3 27 13 1 95 -60 47 17 -45 -59 41 -88 -12 80
000040 e3 05 81 2f 1b df 0b 00 e6 e2 2a 39 32 f5 ed 00
       -29 5 -127 47 27 -33 11 0 -26 -30 42 57 50 -11 -19 0
000050 0d 13 2c 0e d2 20 58 e5 15 fc 05 1a e0 d8 32 d9
       13 19 44 14 -46 32 88 -27 21 -4 5 26 -32 -40 50 -39
000060 1c bd 19 05 4b e7 04 00 f8 10 10 e8 eb bb 07 ce
       28 -67 25 5 75 -25 4 0 -8 16 16 -24 -21 -69 7 -50
000070 0e f6 e6 74 03 e5 81 f6 f9 3f 0d 4f d1 3f 98 ee
       14 -10 -26 116 3 -27 -127 -10 -7 63 13 79 -47 63 -104 -18
000080 0e 1b 1d df ce 59 d5 42 ed 5b 3a f5 0c da 21 ef
       14 27 29 -33 -50 89 -43 66 -19 91 58 -11 12 -38 33 -17
000090 fc 07 d5 4b bd f3 27 34 2c 16 f1 0d ca ec e9 36
       -4 7 -43 75 -67 -13 39 52 44 22 -15 13 -54 -20 -23 54
0000a0 f0 d2 fd ab 33 c7 2a e8 10 e3 39 f4 47 21 02 1d
       -16 -46 -3 -85 51 -57 42 -24 16 -29 57 -12 71 33 2 29
0000b0 c1 2f f9 e5 36 0b 81 bf fe 0e ed 1d c8 0a 3b d1
       -63 47 -7 -27 54 11 -127 -65 -2 14 -19 29 -56 10 59 -47
0000c0 d3 db e7 19 06 3a d6 1a e8 5a e9 04 0a c6 ea 06
       -45 -37 -25 25 6 58 -42 26 -24 90 -23 4 10 -58 -22 6
0000d0 06 f0 b9 bc f7 fb 19 17 e4 d3 1a 65 e3 e9 f4 ff
       6 -16 -71 -68 -9 -5 25 23 -28 -45 26 101 -29 -23 -12 -1
0000e0 b5 e5 1f 7f 0f 03 21 b2 da 61 16 ee 1e d3 ee f8
       -75 -27 31 127 15 3 33 -78 -38 97 22 -18 30 -45 -18 -8
0000f0 ff b3 28 1b bf e5 5f 00 1d 12 cf fd c0 f6 7f 1b
       -1 -77 40 27 -65 -27 95 0 29 18 -49 -3 -64 -10 127 27

sequential/model/block_10_expand/Conv2D;StatefulPartitionedCall/sequential/model/block_10_expand/Conv2D i1 [48, 1, 1, 8]
000000 82 9a 81 45 68 ee 54 65 f4 57 3b f0 ea 81 14 b4
       -126 -102 -127 69 104 -18 84 101 -12 87 59 -16 -22 -127 20 -76
000010 26 bb ac ec 04 7f 15 14 51 b8 fa 4e 33 42 81 65
       38 -69 -84 -20 4 127 21 20 81 -72 -6 78 51 66 -127 101
000020 81 25 e4 32 48 c3 65 f3 4d 81 a9 1d a9 30 fc 1f
       -127 37 -28 50 72 -61 101 -13 77 -127 -87 29 -87 48 -4 31
000030 e2 10 11 4d cf f0 0f 7f 5a e0 23 81 8a d9 92 df
       -30 16 17 77 -49 -16 15 127 90 -32 35 -127 -118 -39 -110 -33
000040 ae 2b 45 81 26 fb 24 14 25 e1 2b de ee fd 7f f5
       -82 43 69 -127 38 -5 36 20 37 -31 43 -34 -18 -3 127 -11
000050 c8 11 bb fc 1d f4 81 02 79 24 ce 6e e2 b4 60 7f
       -56 17 -69 -4 29 -12 -127 2 121 36 -50 110 -30 -76 96 127
000060 d4 f1 06 5d ef 16 e7 7f 73 8b af 91 7f 98 a0 03
       -44 -15 6 93 -17 22 -25 127 115 -117 -81 -111 127 -104 -96 3
000070 7d da 68 e6 d8 d6 81 13 73 2f c0 2d 97 76 81 0a
       125 -38 104 -26 -40 -42 -127 19 115 47 -64 45 -105 118 -127 10
000080 07 e5 f9 20 0d 7f d2 26 f4 44 ed e6 00 81 3f 21
       7 -27 -7 32 13 127 -46 38 -12 68 -19 -26 0 -127 63 33
000090 c1 14 b6 10 fe 7f cc f7 31 cb 53 57 7f 50 f0 e1
       -63 20 -74 16 -2 127 -52 -9 49 -53 83 87 127 80 -16 -31
0000a0 df 06 f2 5e 7f 10 3e 36 46 53 de 7f e2 4f aa ff
       -33 6 -14 94 127 16 62 54 70 83 -34 127 -30 79 -86 -1
0000b0 0c 7f 06 c9 50 05 c0 4b d4 df 03 30 f9 cd 81 df
       12 127 6 -55 80 5 -64 75 -44 -33 3 48 -7 -51 -127 -33
0000c0 7f 18 b7 6c 22 be fd b2 d9 41 a3 aa 81 b5 18 20
       127 24 -73 108 34 -66 -3 -78 -39 65 -93 -86 -127 -75 24 32
0000d0 c8 ef f0 ae 14 03 d5 81 1a 81 55 7d c1 c9 95 10
       -56 -17 -16 -82 20 3 -43 -127 26 -127 85 125 -63 -55 -107 16
0000e0 15 ee dd 81 df 69 61 48 58 2a ba 8e 7f f6 59 85
       21 -18 -35 -127 -33 105 97 72 88 42 -70 -114 127 -10 89 -123
0000f0 4e 7f 18 e6 3b eb cf 26 a0 6d 01 41 81 35 41 f2
       78 127 24 -26 59 -21 -49 38 -96 109 1 65 -127 53 65 -14

sequential/model/block_10_project/Conv2D;StatefulPartitionedCall/sequential/model/block_10_project/Conv2D i1 [16, 1, 1, 48]
000000 be 15 4a a4 db de 7f f5 61 0b b0 c1 a3 31 5c b4
       -66 21 74 -92 -37 -34 127 -11 97 11 -80 -63 -93 49 92 -76
000010 c5 04 52 b8 da fd f2 00 b7 0e ac 87 c2 13 f5 27
       -59 4 82 -72 -38 -3 -14 0 -73 14 -84 -121 -62 19 -11 39
000020 95 f7 a4 16 4a 4d a9 5e 30 4a 3a 49 2b 49 ec c8
       -107 -9 -92 22 74 77 -87 94 48 74 58 73 43 73 -20 -56
000030 04 ed fc f8 01 de 2a fb 45 4e ba ed 0c 10 e4 0b
       4 -19 -4 -8 1 -34 42 -5 69 78 -70 -19 12 16 -28 11
000040 02 07 0e 20 e1 f0 07 db 81 dc 46 6c e8 be ff f2
       2 7 14 32 -31 -16 7 -37 -127 -36 70 108 -24 -66 -1 -14
000050 00 09 fa 0f 00 a7 05 08 fe e8 f4 df e6 1f 2e 05
       0 9 -6 15 0 -89 5 8 -2 -24 -12 -33 -26 31 46 5
000060 de 33 42 cb d6 e7 37 14 a5 fc ed ed e4 47 02 2e
       -34 51 66 -53 -42 -25 55 20 -91 -4 -19 -19 -28 71 2 46
000070 ed 1a 38 2a ec 3b 15 e3 7f dd 0b 4d 09 f6 20 93
       -19 26 56 42 -20 59 21 -29 127 -35 11 77 9 -10 32 -109
000080 14 1c d0 19 09 0b f2 14 d6 fc 07 22 12 a6 47 33
       20 28 -48 25 9 11 -14 20 -42 -4 7 34 18 -90 71 51
000090 3a f2 3d ce 20 10 02 14 0f e6 e6 f6 1b d7 21 2d
       58 -14 61 -50 32 16 2 20 15 -26 -26 -10 27 -41 33 45
0000a0 10 09 24 c1 1f e3 27 c6 e0 3e 26 f8 db c6 00 40
       16 9 36 -63 31 -29 39 -58 -32 62 38 -8 -37 -58 0 64
0000b0 98 00 c6 fd f0 eb fe 20 f2 04 f4 f2 ee 81 f0 f6
       -104 0 -58 -3 -16 -21 -2 32 -14 4 -12 -14 -18 -127 -16 -10
0000c0 03 b4 dd d2 11 d1 fb fd 49 f3 20 c4 2f f9 c6 13
       3 -76 -35 -46 17 -47 -5 -3 73 -13 32 -60 47 -7 -58 19
0000d0 b1 02 e1 12 e6 e7 7f f2 08 ec 03 e1 04 07 03 0f
       -79 2 -31 18 -26 -25 127 -14 8 -20 3 -31 4 7 3 15
0000e0 4f e9 db 0b 17 02 ee 18 e8 dd 13 cc fb f5 10 02
       79 -23 -37 11 23 2 -18 24 -24 -35 19 -52 -5 -11 16 2
0000f0 10 f4 14 02 f8 04 19 13 63 46 81 f0 27 0a ef f7
       16 -12 20 2 -8 4 25 19 99 70 -127 -16 39 10 -17 -9

sequential/model/block_11_expand/Conv2D;StatefulPartitionedCall/sequential/model/block_11_expand/Conv2D i1 [96, 1, 1, 16]
000000 33 af 11 91 d9 f7 e8 2c af b8 1a 08 7f 12 f4 de
       51 -81 17 -111 -39 -9 -24 44 -81 -72 26 8 127 18 -12 -34
000010 05 be 3a 34 de 32 11 d9 31 2b 74 08 32 1f 7f f5
       5 -66 58 52 -34 50 17 -39 49 43 116 8 50 31 127 -11
000020 2f e2 20 61 0e 15 67 38 76 81 00 3c 26 42 b2 c9
       47 -30 32 97 14 21 103 56 118 -127 0 60 38 66 -78 -55
000030 ea 27 be 31 4a 02 e1 17 7f db 04 ef 23 16 bd 00
       -22 39 -66 49 74 2 -31 23 127 -37 4 -17 35 22 -67 0
000040 1c ed 81 dc 72 e9 75 62 e5 50 1f 03 10 04 1e d2
       28 -19 -127 -36 114 -23 117 98 -27 80 31 3 16 4 30 -46
000050 08 08 2d 08 ff 81 3b cf cd 0e b4 bd af f9 c7 fa
       8 8 45 8 -1 -127 59 -49 -51 14 -76 -67 -81 -7 -57 -6
000060 e2 e7 7f 13 e7 36 43 db 60 dd 27 fd 2e fb 36 e5
       -30 -25 127 19 -25 54 67 -37 96 -35 39 -3 46 -5 54 -27
000070 7f 3e 21 d3 19 03 e0 36 bd 8a d6 5a 18 37 27 c7
       127 62 33 -45 25 3 -32 54 -67 -118 -42 90 24 55 39 -57
000080 4e d5 e2 7b c3 b3 21 f8 e8 0e 81 24 b8 9f 0f b6
       78 -43 -30 123 -61 -77 33 -8 -24 14 -127 36 -72 -97 15 -74
000090 d6 81 f5 e3 f4 18 b6 2e d0 06 e9 eb 0e cb 01 af
       -42 -127 -11 -29 -12 24 -74 46 -48 6 -23 -21 14 -53 1 -81
0000a0 fb b8 c4 42 12 16 7f e8 ab 3f f2 30 01 e3 1e df
       -5 -72 -60 66 18 22 127 -24 -85 63 -14 48 1 -29 30 -33
0000b0 be 03 ca 17 bf 4e 3b 2a 28 e0 ec e6 81 b2 5b 32
       -66 3 -54 23 -65 78 59 42 40 -32 -20 -26 -127 -78 91 50
0000c0 56 d0 81 85 de 03 0e 96 07 e7 2c 26 57 e7 ea 41
       86 -48 -127 -123 -34 3 14 -106 7 -25 44 38 87 -25 -22 65
0000d0 4b 1b f6 c8 e7 d6 de 11 14 c1 ba cf fc 01 02 81
       75 27 -10 -56 -25 -42 -34 17 20 -63 -70 -49 -4 1 2 -127
0000e0 57 e1 11 aa ff 9a cc d3 e4 a2 ce 9e d1 81 f5 63
       87 -31 17 -86 -1 -102 -52 -45 -28 -94 -50 -98 -47 -127 -11 99
0000f0 f6 6f 37 fc e5 25 dc 81 10 d7 13 18 1f dd b8 cb
       -10 111 55 -4 -27 37 -36 -127 16 -41 19 24 31 -35 -72 -53

sequential/model/block_11_project/Conv2D;StatefulPartitionedCall/sequential/model/block_11_project/Conv2D i1 [16, 1, 1, 96]
000000 e2 01 2b e1 d8 01 0b c2 12 0e d4 3a fa 6f e0 ee
       -30 1 43 -31 -40 1 11 -62 18 14 -44 58 -6 111 -32 -18
000010 ed 05 fc 40 1a fb 11 ff f9 f8 23 af 24 31 26 fb
       -19 5 -4 64 26 -5 17 -1 -7 -8 35 -81 36 49 38 -5
000020 e3 b5 df ec e5 f5 d4 f7 26 f6 23 f3 0f f1 37 ce
       -29 -75 -33 -20 -27 -11 -44 -9 38 -10 35 -13 15 -15 55 -50
000030 13 06 f7 fc 02 d7 ff 03 f2 1f f6 ff e3 b2 d5 e5
       19 6 -9 -4 2 -41 -1 3 -14 31 -10 -1 -29 -78 -43 -27
000040 15 26 81 05 1a f0 de af 52 11 02 e5 ee 1f 23 c5
       21 38 -127 5 26 -16 -34 -81 82 17 2 -27 -18 31 35 -59
000050 33 35 06 1c 05 0e ff f9 da ff 2f 2a e1 f6 ee f9
       51 53 6 28 5 14 -1 -7 -38 -1 47 42 -31 -10 -18 -7
000060 f8 12 02 0c f9 15 09 de 08 39 f1 13 de 0c f9 0b
       -8 18 2 12 -7 21 9 -34 8 57 -15 19 -34 12 -7 11
000070 81 1a 10 17 12 ee 11 f6 06 11 dd e0 f2 05 08 4c
       -127 26 16 23 18 -18 17 -10 6 17 -35 -32 -14 5 8 76
000080 db 0e 3d 68 dc ef 11 24 ad ec f1 fc da fa 0a 44
       -37 14 61 104 -36 -17 17 36 -83 -20 -15 -4 -38 -6 10 68
000090 2a 08 f4 ba 08 18 ba 11 f2 0e 4b 9f ba 28 df 10
       42 8 -12 -70 8 24 -70 17 -14 14 75 -97 -70 40 -33 16
0000a0 0a f0 cf cd f4 f4 21 1e 13 1d 05 dd fb 3d b2 0d
       10 -16 -49 -51 -12 -12 33 30 19 29 5 -35 -5 61 -78 13
0000b0 f9 0b dc ff 01 cc ec 20 bb f6 07 e0 ec 17 00 ed
       -7 11 -36 -1 1 -52 -20 32 -69 -10 7 -32 -20 23 0 -19
0000c0 31 f7 0e d3 03 f9 f1 2b 05 12 1d ec fa e0 ef c4
       49 -9 14 -45 3 -7 -15 43 5 18 29 -20 -6 -32 -17 -60
0000d0 13 e6 f0 16 8e d6 b8 00 f7 c8 02 37 ff 05 f1 05
       19 -26 -16 22 -114 -42 -72 0 -9 -56 2 55 -1 5 -15 5
0000e0 2a da 1a c4 b8 28 17 20 1e ce 20 d3 bd 71 0c fa
       42 -38 26 -60 -72 40 23 32 30 -50 32 -45 -67 113 12 -6
0000f0 2a dc 13 18 e0 53 32 25 f0 3c 86 bb ed 06 d4 36
       42 -36 19 24 -32 83 50 37 -16 60 -122 -69 -19 6 -44 54

sequential/model/block_12_expand/Conv2D;StatefulPartitionedCall/sequential/model/block_12_expand/Conv2D i1 [96, 1, 1, 16]
000000 fc a1 1d a1 27 26 b1 30 b6 ac d7 bb d6 c2 41 7f
       -4 -95 29 -95 39 38 -79 48 -74 -84 -41 -69 -42 -62 65 127
000010 02 40 11 da 7f ee ec 22 fb a3 12 0e 13 20 e9 95
       2 64 17 -38 127 -18 -20 34 -5 -93 18 14 19 32 -23 -107
000020 0a 36 ef f7 e7 e4 f0 4e 2d dd b3 2c 81 37 d0 65
       10 54 -17 -9 -25 -28 -16 78 45 -35 -77 44 -127 55 -48 101
000030 7f f2 e4 f7 1d 9a 22 cd e3 e1 37 d5 02 48 77 d4
       127 -14 -28 -9 29 -102 34 -51 -29 -31 55 -43 2 72 119 -44
000040 e5 3b 0d ee 33 1a 4c 0d ce 31 eb 0d 7f 26 ca bd
       -27 59 13 -18 51 26 76 13 -50 49 -21 13 127 38 -54 -67
000050 f1 ba 48 16 11 7f 69 d1 d4 2b 1b d8 57 c8 12 0a
       -15 -70 72 22 17 127 105 -47 -44 43 27 -40 87 -56 18 10
000060 d1 a3 f1 67 5d 98 21 a0 81 b9 c3 a7 e1 d8 af d2
       -47 -93 -15 103 93 -104 33 -96 -127 -71 -61 -89 -31 -40 -81 -46
000070 49 ec 7f da e6 d9 32 02 0b c1 ef 89 bf c7 15 44
       73 -20 127 -38 -26 -39 50 2 11 -63 -17 -119 -65 -57 21 68
000080 c1 0c 34 10 81 e7 ff b1 c6 1d de 2d 83 bd c8 0a
       -63 12 52 16 -127 -25 -1 -79 -58 29 -34 45 -125 -67 -56 10
000090 12 22 97 d0 e5 81 c1 2b bf 0c c4 db bc 09 3a 1b
       18 34 -105 -48 -27 -127 -63 43 -65 12 -60 -37 -68 9 58 27
0000a0 b2 7f c6 02 f4 ba 7b 47 e7 d7 e7 0a 2c de 1e 5d
       -78 127 -58 2 -12 -70 123 71 -25 -41 -25 10 44 -34 30 93
0000b0 a5 f8 c6 0e d7 3b da 0a 4a ed 11 4e 7f ed 00 fd
       -91 -8 -58 14 -41 59 -38 10 74 -19 17 78 127 -19 0 -3
0000c0 8f 35 7f a0 eb 4d 39 c5 e8 39 7d fa 0f ed 29 6d
       -113 53 127 -96 -21 77 57 -59 -24 57 125 -6 15 -19 41 109
0000d0 eb 90 5b 1f fa af eb 91 a5 ca 7f 8e 18 c1 1f be
       -21 -112 91 31 -6 -81 -21 -111 -91 -54 127 -114 24 -63 31 -66
0000e0 81 51 9e f8 27 0e 2f f2 eb e5 1c cc e7 27 f0 54
       -127 81 -98 -8 39 14 47 -14 -21 -27 28 -52 -25 39 -16 84
0000f0 bc 7f 24 f4 07 1c e3 e3 f5 bb 0a f2 13 dd 0b 34
       -68 127 36 -12 7 28 -29 -29 -11 -69 10 -14 19 -35 11 52
