1.4.2 - Inference (OpenMV)/dnn-live-inference/trained.tflite (tflite, 57840 bytes, 3 tensors)

sequential/dense/MatMul;StatefulPartitionedCall/sequential/dense/MatMul i1 [64, 784] scale=0.0023408113 zero_point=0
-0.060861096 0.051497847 -0.025748923 0.07724677 -0.046816226 0.07490596 0.016385678 -0.016385678
-0.009363245 0.081928395 0.016385678 -0.030430548 -0.07022434 0.01872649 0.03511217 -0.03745298
-0.07490596 -0.023408113 0.0023408113 -0.03511217 -0.039793793 -0.05383866 0.032771356 -0.007022434
0.06788353 0.05383866 -0.04915704 0.03745298 -0.023408113 0.07022434 0.016385678 0.009363245
0.03511217 0.063201904 0.032771356 -0.039793793 0.016385678 0.04915704 -0.0046816226 0.03745298
0.060861096 0.023408113 0.025748923 0.05617947 0.021067303 0.025748923 0.060861096 0.06554271
0.032771356 -0.016385678 -0.01872649 -0.06788353 -0.028089736 0.044475414 0.014044868 0.009363245
-0.07256515 0.03745298 0.028089736 0.028089736 -0.058520284 0.04915704 0.07724677 0.081928395
-0.016385678 -0.039793793 0.07022434 0.0046816226 -0.08426921 0.079587586 0.039793793 -0.039793793
0.07022434 -0.05617947 -0.03511217 -0.03511217 0.063201904 0.032771356 0.021067303 -0.023408113
-0.0023408113 -0.06554271 -0.07256515 0.060861096 -0.04915704 -0.07256515 0.039793793 -0.04915704
-0.01872649 -0.030430548 0.039793793 -0.044475414 0.046816226 -0.07256515 -0.051497847 -0.058520284
-0.016385678 -0.0046816226 -0.06554271 0.032771356 0.07256515 -0.06554271 0.05617947 -0.051497847
-0.01872649 0.06554271 0.028089736 0.0117040565 0.023408113 0.04915704 -0.042134605 -0.021067303
-0.032771356 -0.03511217 0.03745298 -0.063201904 0.04915704 -0.0046816226 -0.0046816226 0.01872649
0.032771356 -0.07724677 0.007022434 -0.081928395 0.030430548 -0.044475414 -0.025748923 -0.042134605
0.023408113 0.06788353 -0.021067303 -0.046816226 0.007022434 -0.07022434 -0.079587586 -0.051497847
0.042134605 -0.023408113 0.05617947 -0.06554271 -0.079587586 0.0023408113 -0.051497847 -0.032771356
-0.079587586 -0.0117040565 0.030430548 -0.009363245 -0.03511217 -0.007022434 0.028089736 -0.023408113
-0.07022434 0.021067303 -0.0023408113 0.021067303 0.07724677 0.081928395 0.06554271 0.01872649
0.058520284 -0.06554271 0.04915704 -0.06554271 0.032771356 -0.044475414 -0.030430548 0.023408113
-0.007022434 -0.081928395 0.023408113 0.044475414 -0.060861096 -0.07490596 -0.03745298 0.06554271
-0.025748923 -0.04915704 -0.058520284 -0.05617947 0.032771356 0.08426921 -0.03745298 -0.030430548
0.05383866 0.07022434 0.01872649 0.042134605 0.028089736 -0.06554271 0.08426921 0.01872649
-0.0046816226 -0.025748923 0.046816226 -0.042134605 -0.039793793 -0.039793793 -0.025748923 0.060861096
-0.046816226 0.016385678 0.03511217 0.009363245 0.025748923 -0.06554271 0.044475414 -0.07490596
-0.060861096 -0.079587586 -0.07022434 0.023408113 0.009363245 0.07256515 0.07256515 0.014044868
0.025748923 0.07490596 -0.016385678 0.007022434 0.05383866 -0.016385678 -0.079587586 -0.07490596
0.023408113 0.03511217 -0.081928395 -0.07490596 -0.032771356 0.079587586 -0.021067303 -0.016385678
0.081928395 0.025748923 -0.023408113 0.07022434 0.044475414 -0.046816226 0.04915704 0.0117040565
0.028089736 -0.042134605 -0.063201904 0.0117040565 0.0023408113 -0.046816226 -0.007022434 -0.063201904
0.016385678 -0.07256515 0.01872649 0.07490596 0.07022434 -0.014044868 -0.009363245 0.03511217
00000000: e616 f521 ec20 07f9 fc23 07f3 e208 0ff0
00000010: e0f6 01f1 efe9 0efd 1d17 eb10 f61e 0704
00000020: 0f1b 0eef 0715 fe10 1a0a 0b18 090b 1a1c
00000030: 0ef9 f8e3 f413 0604 e110 0c0c e715 2123
00000040: f9ef 1e02 dc22 11ef 1ee8 f1f1 1b0e 09f6
00000050: ffe4 e11a ebe1 11eb f8f3 11ed 14e1 eae7
00000060: f9fe e40e 1fe4 18ea f81c 0c05 0a15 eef7
00000070: f2f1 10e5 15fe fe08 0edf 03dd 0ded f5ee
00000080: 0a1d f7ec 03e2 deea 12f6 18e4 de01 eaf2
00000090: defb 0dfc f1fd 0cf6 e209 ff09 2123 1c08
000000a0: 19e4 15e4 0eed f30a fddd 0a13 e6e0 f01c
000000b0: f5eb e7e8 0e24 f0f3 171e 0812 0ce4 2408
000000c0: fef5 14ee efef f51a ec07 0f04 0be4 13e0
000000d0: e6de e20a 041f 1f06 0b20 f903 17f9 dee0
000000e0: 0a0f dde0 f222 f7f9 230b f61e 13ec 1505
000000f0: 0cee e505 01ec fde5 07e1 0820 1efa fc0f

sequential/dense_1/MatMul;StatefulPartitionedCall/sequential/dense_1/MatMul i1 [64, 64] scale=0.0044153007 zero_point=0
-0.13245901 -0.06622951 0.18102732 -0.06181421 0.0044153007 0.07064481 0.11038252 -0.013245902
0.18544263 -0.09713662 -0.15895082 0.15895082 0.026491804 0.04856831 0.06622951 0.0044153007
-0.19427323 -0.105967216 -0.17661202 -0.30465576 0.083890714 0.039737705 0.17661202 -0.16778143
0.15012023 0.11921312 -0.11038252 -0.16336612 -0.07947541 0.19427323 0.08830601 0.044153005
-0.114797816 0.008830601 0.013245902 -0.17661202 0.28257924 -0.18985793 -0.27816394 -0.16778143
0.06181421 0.09272131 -0.24284154 -0.19427323 -0.21634974 -0.21634974 0.08830601 -0.17219673
-0.0044153007 -0.26050273 -0.21634974 -0.18544263 0.030907106 0.052983608 -0.5033443 0.09713662
-0.052983608 -0.008830601 -0.15895082 0.083890714 -0.04856831 0.044153005 0.114797816 -0.12362842
-0.13687432 0.0044153007 -0.18102732 -0.14128962 -0.0044153007 0.13245901 0.40179235 0.10155191
-0.06181421 0.039737705 -0.075060114 -0.039737705 0.18985793 -0.20310383 -0.07947541 0.035322405
-0.114797816 0.14128962 -0.022076502 -0.008830601 0.18102732 0.14128962 0.18544263 -0.17661202
-0.20751913 0.083890714 0.06181421 0.105967216 -0.08830601 -0.12362842 -0.026491804 0.25608745
-0.19427323 0.075060114 -0.075060114 0.06622951 0.09272131 -0.035322405 0.083890714 0.083890714
0.17219673 -0.10155191 -0.09272131 0.075060114 0.083890714 -0.114797816 -0.20751913 0.13687432
0.0 0.12362842 -0.022076502 -0.17661202 0.12362842 0.075060114 -0.10155191 -0.21193443
0.21193443 0.13245901 -0.15453552 0.11921312 -0.23842624 0.06181421 0.14128962 -0.09272131
-0.16336612 0.017661203 0.15895082 0.04856831 0.030907106 0.026491804 0.17661202 0.09272131
0.14128962 0.07064481 0.09272131 -0.0044153007 0.026491804 0.33556286 0.083890714 0.075060114
0.052983608 -0.14570493 -0.07947541 0.0044153007 0.114797816 -0.17219673 0.044153005 0.09713662
-0.017661203 0.0044153007 0.18102732 0.017661203 0.24284154 -0.035322405 0.20310383 0.075060114
-0.17661202 0.14128962 -0.07064481 -0.18544263 0.34439346 0.114797816 -0.15895082 -0.17219673
0.37088525 0.13245901 0.32231694 -0.022076502 -0.030907106 0.28257924 0.022076502 -0.18985793
-0.09272131 -0.083890714 0.14570493 0.15453552 -0.06622951 0.11038252 0.38413116 0.083890714
0.017661203 0.035322405 -0.12804373 0.19868854 0.026491804 -0.13245901 0.12362842 0.026491804
-0.13687432 -0.06622951 -0.07064481 0.14570493 0.013245902 -0.08830601 0.035322405 0.16336612
-0.075060114 -0.052983608 -0.07064481 0.013245902 -0.21634974 -0.18102732 -0.20310383 -0.114797816
-0.12362842 -0.008830601 0.04856831 -0.17661202 -0.105967216 0.20751913 -0.20751913 0.14128962
0.030907106 -0.16336612 -0.04856831 -0.075060114 -0.057398908 0.15895082 -0.14570493 -0.16336612
-0.075060114 -0.16336612 0.16336612 0.20310383 0.12804373 0.16778143 0.21193443 -0.057398908
0.34439346 -0.18985793 -0.17661202 0.022076502 -0.22518033 -0.11038252 0.20751913 0.07947541
0.008830601 0.16778143 0.008830601 0.04856831 0.06622951 -0.11038252 0.12804373 -0.013245902
0.026491804 -0.09272131 -0.09272131 0.19427323 0.11038252 0.0 0.20310383 -0.026491804
00000000: e2f1 29f2 0110 19fd 2aea dc24 060b 0f01
00000010: d4e8 d8bb 1309 28da 221b e7db ee2c 140a
00000020: e602 03d8 40d5 c1da 0e15 c9d4 cfcf 14d9
00000030: ffc5 cfd6 070c 8e16 f4fe dc13 f50a 1ae4
00000040: e101 d7e0 ff1e 5b17 f209 eff7 2bd2 ee08
00000050: e620 fbfe 2920 2ad8 d113 0e18 ece4 fa3a
00000060: d411 ef0f 15f8 1313 27e9 eb11 13e6 d11f
00000070: 001c fbd8 1c11 e9d0 301e dd1b ca0e 20eb
00000080: db04 240b 0706 2815 2010 15ff 064c 1311
00000090: 0cdf ee01 1ad9 0a16 fc01 2904 37f8 2e11
000000a0: d820 f0d6 4e1a dcd9 541e 49fb f940 05d5
000000b0: ebed 2123 f119 5713 0408 e32d 06e2 1c06
000000c0: e1f1 f021 03ec 0825 eff4 f003 cfd7 d2e6
000000d0: e4fe 0bd8 e82f d120 07db f5ef f324 dfdb
000000e0: efdb 252e 1d26 30f3 4ed5 d805 cde7 2f12
000000f0: 0226 020b 0fe7 1dfd 06eb eb2c 1900 2efa

sequential/y_pred/MatMul;StatefulPartitionedCall/sequential/y_pred/MatMul i1 [5, 64] scale=0.0048685265 zero_point=0
-0.28237453 -0.11684464 -0.41869327 -0.20934664 -0.15092432 0.3846136 -0.048685264 -0.4235618
0.23368928 0.05842232 -0.56961757 0.092502005 -0.12171316 -0.19474106 -0.43329886 -0.034079686
-0.54040647 0.30671716 -0.27750602 0.019474106 0.32619128 -0.5258009 -0.03894821 -0.3505339
0.14118727 0.019474106 -0.1655299 -0.3115857 0.07789642 0.18013547 0.2190837 0.10710758
-0.26776895 0.37000802 -0.26776895 0.05355379 -0.36027095 0.14605579 0.35540244 0.30671716
-0.16066137 0.15579285 0.1655299 -0.22395222 -0.2726375 -0.12658168 0.07789642 -0.35540244
-0.092502005 0.11684464 0.11197611 -0.45764148 -0.12171316 -0.10710758 0.18013547 -0.07789642
0.37487653 -0.14118727 -0.5014582 0.44790444 -0.3115857 0.37974507 -0.05842232 -0.048685264
0.034079686 -0.41869327 0.1655299 -0.18013547 -0.10710758 -0.06815937 -0.47224706 -0.07789642
-0.3846136 0.05842232 0.2580319 0.2969801 0.073027894 0.18987253 0.11197611 0.33592832
-0.24829485 0.17039843 -0.15092432 -0.08276495 -0.23368928 0.29211158 0.35540244 0.21421516
-0.043816738 0.28237453 0.048685264 0.14118727 0.18987253 -0.37000802 -0.15579285 -0.2190837
-0.18987253 -0.14118727 -0.36027095 0.13631874 0.36513948 -0.2580319 -0.39435065 0.36027095
-0.034079686 -0.24342632 -0.13631874 -0.1996096 0.42843032 0.0 -0.22395222 -0.10710758
0.28237453 0.34566537 -0.42843032 0.15579285 -0.14605579 -0.05355379 -0.22882074 0.4381674
-0.29211158 0.18013547 -0.08276495 -0.11197611 0.009737053 -0.18013547 -0.3992192 0.27750602
-0.41869327 0.3505339 0.092502005 0.20447811 0.36513948 -0.043816738 0.17039843 0.30184865
0.26290044 -0.10710758 0.14118727 -0.34079686 0.32619128 -0.08276495 0.01460558 -0.06329084
0.12171316 0.17039843 0.50632674 0.13631874 -0.024342632 -0.37974507 0.15579285 0.10223906
-0.043816738 0.0 0.28724307 -0.45277297 0.3846136 -0.2190837 -0.11684464 -0.13631874
-0.15092432 -0.06329084 0.20447811 -0.32619128 -0.19474106 0.18013547 0.18013547 0.28724307
-0.3894821 0.11684464 0.06329084 -0.6183029 -0.24829485 -0.40895623 -0.3310598 0.3115857
-0.28237453 -0.07789642 0.36513948 -0.07789642 -0.03894821 -0.31645423 0.043816738 -0.05842232
0.12658168 -0.092502005 0.25316337 0.37000802 0.30184865 0.2969801 -0.1996096 -0.02921116
-0.34566537 -0.1655299 0.2726375 0.019474106 -0.024342632 -0.092502005 0.092502005 -0.13631874
-0.37000802 -0.24829485 0.4040877 0.034079686 0.087633476 -0.2580319 0.09737053 0.16066137
0.29211158 -0.47224706 -0.25316337 -0.36027095 0.13631874 -0.0048685265 0.05355379 0.21421516
-0.55501205 -0.13145022 -0.4430359 -0.36027095 -0.19474106 -0.32132274 -0.3310598 -0.58422315
0.29211158 -0.36027095 0.31645423 -0.4040877 -0.3115857 -0.29211158 -0.12171316 -0.2190837
0.43329886 -0.11684464 -0.13145022 0.23368928 0.05842232 -0.073027894 0.15092432 -0.33592832
0.28237453 -0.11684464 -0.28724307 -0.13145022 0.41382474 0.34079686 0.47224706 0.07789642
0.06329084 -0.45277297 0.10223906 -0.12658168 -0.3310598 -0.043816738 0.48685265 -0.21421516
00000000: c6e8 aad5 e14f f6a9 300c 8b13 e7d8 a7f9
00000010: 913f c704 4394 f8b8 1d04 dec0 1025 2d16
00000020: c94c c90b b61e 493f df20 22d2 c8e6 10b7
00000030: ed18 17a2 e7ea 25f0 4de3 995c c04e f4f6
00000040: 07aa 22db eaf2 9ff0 b10c 353d 0f27 1745
00000050: cd23 e1ef d03c 492c f73a 0a1d 27b4 e0d3
00000060: d9e3 b61c 4bcb af4a f9ce e4d7 5800 d2ea
00000070: 3a47 a820 e2f5 d15a c425 efe9 02db ae39
00000080: aa48 132a 4bf7 233e 36ea 1dba 43ef 03f3
00000090: 1923 681c fbb2 2015 f700 3ba3 4fd3 e8e4
000000a0: e1f3 2abd d825 253b b018 0d81 cdac bc40
000000b0: c6f0 4bf0 f8bf 09f4 1aed 344c 3e3d d7fa
000000c0: b9de 3804 fbed 13e4 b4cd 5307 12cb 1421
000000d0: 3c9f ccb6 1cff 0b2c 8ee5 a5b6 d8be bc88
000000e0: 3cb6 41ad c0c4 e7d3 59e8 e530 0cf1 1fbb
000000f0: 3ae8 c5e5 5546 6110 0da3 15e6 bcf7 64d4
